src2/outputs/checkpoints_v2/mlp_real_gps_scaled_v2.pth (torch, 43166 bytes, 6 tensors)

net.0.weight f4 [128, 12]
-0.0014764912 0.12902166 -0.2277653 0.09462434 -0.05441008 0.052132268 0.18376383 0.13973275
-0.08683913 0.08907069 -0.036250833 0.015099976 -0.15991227 0.009360769 -0.06826951 0.19240233
0.16927685 0.32153666 0.088364705 -0.22618848 0.14361946 0.1090567 -0.021666562 0.017086122
-0.22674955 -0.16901186 -0.07691542 0.09532577 0.11083316 0.14880973 -0.014082586 -0.019759763
-0.024069766 -0.070588805 -0.029414441 0.15320712 0.8012873 -0.4509769 -0.4256642 -0.32301274
0.054326225 0.05129465 -0.2801748 -0.38296863 -0.16695695 -0.24300484 -0.03035749 -0.08840395
0.75276756 -0.11050149 -0.00038240867 0.11012654 -0.30114627 -0.26355895 -0.007742425 -0.020740343
-0.23848344 -0.005476879 -0.1229903 0.0546521 0.29869828 -0.11210671 -0.0622149 0.20388895
0.20203592 -0.056183502 -0.04278049 0.13813941 0.16510797 -0.0050137164 -0.05581939 0.0148725705
-0.4737983 -0.3954489 -0.17657456 0.026261186 -0.44476125 -0.12698217 -0.11851886 -0.025048869
-0.0074424357 -0.4491653 -0.29306328 -0.15600446 -0.71191895 0.12514989 -0.13999777 -0.062322382
-0.15482306 -0.07241105 -0.22774744 1.7205732e-05 -0.14237095 -0.046765096 -0.16052383 -0.22683617
-0.005866964 -0.17129365 0.11478458 0.13472039 -0.0036843563 0.29408997 -0.01929031 0.14917253
0.1919602 0.05614112 -0.0131619675 -0.032715365 0.1612789 0.029855877 -0.042949885 -0.1031691
-0.2531172 0.037662245 -0.0373944 0.20471215 0.021914251 -0.16239655 -0.019322246 -0.2508385
-0.47262233 -0.06994908 0.07017885 0.05450986 0.37088504 -0.083085336 -0.008226059 0.10572204
0.10564432 0.09672886 -0.009193153 -0.13593937 -0.00694989 -0.21615118 0.20691708 -0.073611446
-0.047724616 -0.13263802 -0.039668925 0.24391729 -0.069914505 0.04428973 -0.048427314 -0.06182984
-0.8883407 -0.15174982 -0.003404573 0.2602334 -0.22611529 0.17976075 0.026154935 0.0060912305
0.042803384 0.062415965 0.017257823 0.105437115 0.7286559 -0.24151647 -0.050457485 0.0233341
-0.4006416 -0.21524781 -0.3719653 -0.2999477 -0.018690826 -0.024092345 0.0043456643 0.06653259
0.45472875 -0.053550143 0.066245735 0.19848584 0.2733348 -0.20142676 0.14441146 0.04682279
0.14900632 0.12034806 -3.8285148e-06 -0.10344473 -0.011694684 -0.1053037 -0.004309799 0.1739229
-0.033260144 0.33148867 0.009275734 0.087856375 0.067154385 -0.102189116 -0.020767031 0.02725637
-1.2201773 -0.11644415 -0.37263402 -0.3993428 0.008375336 -0.10376027 -0.040837746 -0.48002905
-0.41465786 -0.018142045 -0.49079284 -0.30893013 0.35512972 0.14209042 -0.19204265 0.29774526
0.08600087 0.16539189 -0.031589117 0.07737519 0.068311974 0.10632133 -0.031831227 -0.03221073
-0.009427335 -0.032766603 -0.17038599 0.118985124 -0.08697642 -0.18765719 0.20333709 -0.087342076
-0.25043747 0.15018523 -0.10471883 -0.05978427 -0.15112543 -0.28415656 -0.124803625 0.27894092
-0.14879946 -0.23262843 0.21992217 0.052410986 0.15299453 0.24915409 -0.1187752 0.20113598
0.41692647 0.12502714 -0.13092029 0.10797044 0.34548852 -0.032369602 0.092846036 0.07844057
0.21586955 -0.0014012029 -0.00643352 -0.16287208 -0.015427662 0.036714833 -0.15687934 0.22995354
00000000: d386 c1ba 411e 043e 4f3b 69be 68ca c13d
00000010: 1bdd 5ebd a588 553d 962c 3c3e 1a16 0f3e
00000020: b7d8 b1bd b26a b63d c17b 14bd e465 773c
00000030: 0bc0 23be e95d 193c e3d0 8bbd 1e05 453e
00000040: e956 2d3e 74a0 a43e 8ef8 b43d f49d 67be
00000050: fb10 133e 1e59 df3d 137e b1bc 32f8 8b3c
00000060: 0931 68be 7211 2dbe d585 9dbd 283a c33d
00000070: 7ffc e23d 9461 183e a6ba 66bc 3adf a1bc
00000080: f52d c5bc dd90 90bd 8ef6 f0bc 54e2 1c3e
00000090: 2a21 4d3f 72e6 e6be a8f0 d9be ed61 a5be
000000a0: 2d85 5e3d 571a 523d 1273 8fbe 7714 c4be
000000b0: c3f6 2abe 43d6 78be 45b0 f8bc 210d b5bd
000000c0: 60b5 403f 9b4e e2bd 067e c8b9 068a e13d
000000d0: d82f 9abe 33f1 86be 2bb4 fdbb a7e7 a9bc
000000e0: 0135 74be 6477 b3bb 57e2 fbbd e1da 5f3d
000000f0: fbee 983e 3498 e5bd 0dd5 7ebd 44c8 503e
00000100: 81e2 4e3e ac20 66bd 983a 2fbd 6b74 0d3e
00000110: 1012 293e 1a4a a4bb dfa2 64bd 15ac 733c
00000120: b195 f2be 4778 cabe f6cf 34be b321 d73c
00000130: bfb7 e3be 9d07 02be 04ba f2bd 4933 cdbc
00000140: addf f3bb fff8 e5be 640c 96be a2bf 1fbe
00000150: 5240 36bf 4b27 003e 935b 0fbe c145 7fbd
00000160: f089 1ebe 3f4c 94bd a036 69be 0755 9037
00000170: b1c9 11be c28c 3fbd 5c60 24be be47 68be
00000180: a93f c0bb 9a67 2fbe 2e14 eb3d 24f4 093e
00000190: 3e75 71bb f692 963e b606 9ebc afc0 183e
000001a0: 3791 443e 3bf4 653d 4ba5 57bc 8c00 06bd
000001b0: 4c26 253e 5094 f43c 38ec 2fbd 524a d3bd
000001c0: 9498 81be ba43 1a3d df2a 19bd 10a0 513e
000001d0: 8485 b33c 484b 26be b049 9ebc e76d 80be
000001e0: 8efb f1be 7741 8fbd eeb9 8f3d bb45 5f3d
000001f0: a5e4 bd3e a528 aabd 98c6 06bc cc84 d83d
00000200: 0d5c d83d c819 c63d e19e 16bc b133 0bbe
00000210: e7bb e3bb bc56 5dbe 12e2 533e 99c1 96bd
00000220: e37a 43bd 43d2 07be e27b 22bd 74c5 793e
00000230: 562f 8fbd 2669 353d b85b 46bd 4941 7dbd
00000240: 4c6a 63bf 4e64 1bbe 421f 5fbb 503d 853e
00000250: c48a 67be 3413 383e e042 d63c f298 c73b
00000260: 9a52 2f3d e2a7 7f3d 4760 8d3c 6aef d73d
00000270: 3189 3a3f 1850 77be 82ac 4ebd 2827 bf3c
00000280: e520 cdbe ec69 5cbe 3c72 bebe bf92 99be
00000290: 811d 99bc 4f5d c5bc 1366 8e3b 3d42 883d
000002a0: 35d2 e83e 6557 5bbd d8ab 873d df3f 4b3e
000002b0: 8af2 8b3e d142 4ebe 99e0 133e 41c9 3f3d
000002c0: 1d95 183e 0b79 f63d b176 80b6 d5da d3bd
000002d0: 0f9b 3fbc 77a9 d7bd 3739 8dbb d818 323e
000002e0: ca3b 08bd e2b8 a93e 40f9 173c 0bee b33d
000002f0: 3d88 893d 8748 d1bd 9f1f aabc c048 df3c
00000300: c52e 9cbf 457a eebd e3c9 bebe a976 ccbe
00000310: b538 093c 4480 d4bd 7b45 27bd 5ec6 f5be
00000320: 094e d4be a09e 94bc 3349 fbbe 172c 9ebe
00000330: 90d3 b53e 2780 113e d4a6 44be 1172 983e
00000340: 3921 b03d 7e5c 293e 9763 01bd e276 9e3d
00000350: 26e7 8b3d ffbe d93d 7661 02bd 66ef 03bd
00000360: 1c75 1abc 4636 06bd aa79 2ebe 79ae f33d
00000370: b120 b2bd 3529 40be 9937 503e 67e0 b2bd
00000380: 5739 80be 28ca 193e d376 d6bd 5ae0 74bd
00000390: a0c0 1abe f87c 91be 0b99 ffbd 58d1 8e3e
000003a0: e35e 18be 2636 6ebe 4733 613e e7ac 563d
000003b0: 99aa 1c3e 4022 7f3e 6940 f3bd 97f6 4d3e
000003c0: 6377 d53e 1d07 003e f80f 06be 9b1f dd3d
000003d0: dfe3 b03e fd95 04bd 1026 be3d 73a5 a03d
000003e0: e80c 5d3e 91a8 b7ba 47d0 d2bb f0c7 26be
000003f0: 4ec4 7cbc 4b62 163d faa4 20be f178 6b3e

net.0.bias f4 [128]
-0.0342275 0.21725976 -0.5200045 0.22159004 0.07820688 0.028435476 0.07519562 0.014991852
-0.057004496 0.18924755 -0.4143818 -0.016088283 -0.42179382 0.2269524 -0.6506436 -0.026668478
0.20164053 -0.2784696 -0.28423986 0.23643619 -0.6037084 -0.020625833 -0.50205815 0.5233522
-0.14931563 -0.37062123 -0.2786317 -0.4743259 -0.3847554 -0.24149805 -0.12357559 -0.4655059
0.17300367 0.11487864 0.23604003 -0.03481339 -0.36886576 -0.42674607 0.25931385 0.333994
-0.39644238 0.42120323 0.18326366 0.36670503 -0.11850603 0.21773592 -0.47977707 -0.46580285
-0.003579308 -0.010037691 -0.6270051 -0.27617317 0.49792433 0.08920587 0.05573065 -0.68843395
-0.48663732 -0.5629798 0.44120044 0.3548476 0.13433416 0.1216592 0.20552137 -0.30132413
-0.23960099 0.34454393 0.24684003 -0.6352142 -0.028333088 -0.46155885 -0.0066080177 -0.12156928
-0.120177776 -0.5604529 -0.13252544 -0.003905576 -0.020216854 -0.3220631 -0.27699625 -0.2589541
0.13053606 0.1884209 0.207217 -0.35550094 0.34802163 -0.78147465 -0.04490865 -0.53355664
-0.012133034 -0.49786893 0.25054646 -0.44476798 -0.8620727 -0.14779784 -0.6664653 0.25660005
-0.45708904 0.22195652 -0.45549485 -0.102073014 -0.22899647 0.009995477 0.204745 -0.3130854
0.16913973 0.11926841 0.31598064 -0.37468058 -0.053384732 -0.70486426 -0.71096885 -0.5463809
0.064620905 -0.64808416 -0.37184545 -0.16844687 -0.1274454 -0.45838326 0.06627533 0.109727845
-0.6345717 -0.26233473 -0.1038514 -0.21064855 0.25022793 0.08329525 -0.23592554 0.10965775
00000000: 2332 0cbd 5879 5e3e 041f 05bf 80e8 623e
00000010: ee2a a03d 84f1 e83c 2900 9a3d 63a0 753c
00000020: 8c7d 69bd 1cca 413e da29 d4be 93cb 83bc
00000030: 5cf5 d7be 3666 683e 9490 26bf da77 dabc
00000040: db7a 4e3e 9193 8ebe e387 91be 541c 723e
00000050: a28c 1abf 82f7 a8bc e286 00bf 69fa 053f
00000060: 32e6 18be 11c2 bdbe d0a8 8ebe d8da f2be
00000070: a9fe c4be 444b 77be 3315 fdbd ca56 eebe
00000080: e027 313e 7e45 eb3d 7ab4 713e 7c98 0ebd
00000090: f9db bcbe 767e dabe c9c4 843e 4301 ab3e
000000a0: 7ffa cabe f3a7 d73e 78a9 3b3e c3c0 bb3e
000000b0: 4ab3 f2bd 2af6 5e3e 57a5 f5be b67d eebe
000000c0: d392 6abb 2175 24bc 6883 20bf 9266 8dbe
000000d0: f0ef fe3e 91b1 b63d d245 643d 353d 30bf
000000e0: 8728 f9be 721f 10bf 06e5 e13e 96ae b53e
000000f0: e58e 093e 7528 f93d 3274 523e 2847 9abe
00000100: f659 75be 1068 b03e a2c3 7c3e 669d 22bf
00000110: cb1a e8bc 7151 ecbe 1288 d8bb 51f9 f8bd
00000120: c41f f6bd d779 0fbf c0b4 07be b1f4 7fbb
00000130: d19d a5bc 74e5 a4be 74d2 8dbe a295 84be
00000140: 3fab 053e 69f1 403e b130 543e 3804 b6be
00000150: e42f b23e b90e 48bf 22f2 37bd 2b97 08bf
00000160: a2c9 46bc ade8 febe a047 803e a1b8 e3be
00000170: ccb0 5cbf 5158 17be 789d 2abf 1561 833e
00000180: 9307 eabe 9248 633e 9f36 e9be a80b d1bd
00000190: 0d7e 6abe 12c4 233c aca8 513e bb4c a0be
000001a0: f732 2d3e ff42 f43d 37c8 a13e 22d6 bfbe
000001b0: f3a9 5abd fc71 34bf 0e02 36bf 9edf 0bbf
000001c0: f757 843d d8e8 25bf 8762 bebe 567d 2cbe
000001d0: 0c81 02be 36b1 eabe 5cbb 873d feb8 e03d
000001e0: 4a73 22bf bd50 86be 0bb0 d4bd 41b4 57be
000001f0: e01d 803e b396 aa3d 7796 71be 3e94 e03d

net.2.weight f4 [64, 128]
-0.08126261 -0.043843783 -0.04725854 0.022534335 -0.044685658 -0.058541145 0.063106425 -0.03954712
0.015856532 -0.04618517 -0.064818785 -0.120125934 -0.0993527 -0.069288194 -0.032432202 0.016178682
0.033087984 -0.0472408 -0.07601456 -0.11403065 0.18740812 -0.119333096 0.113401234 -0.4110093
0.03817576 -0.08504679 0.00068590447 0.027789658 0.09851769 0.054942466 -0.037114024 -0.01587927
-0.0037451745 -0.02070673 -0.0818313 0.19531967 -0.08435744 -0.0060566664 -0.25037032 0.017690863
-0.008438458 -0.057969473 -0.09412679 0.25494182 0.20649113 -0.11462512 -0.112635255 -0.13292532
-0.022771621 0.05892453 -0.07584946 0.14109713 0.2497152 0.05971307 -0.10100695 0.0654661
0.037378278 0.06884795 0.15548798 0.024033103 -0.12035913 -0.08920604 0.020352995 -0.08733975
-0.060906827 -0.087044865 0.39706883 0.007887844 0.094346225 -0.01824431 -0.10808476 -0.13223965
-0.077116504 0.012608638 0.03942979 0.0128307 -0.071347706 -0.044827275 0.08692108 0.016827587
-0.31685704 -0.0389238 -0.047144074 -0.093892835 -0.012720697 -0.104609996 -0.040679272 -0.07241432
-0.013479825 -0.0010044096 -0.046024375 -0.060702194 0.005690745 0.040493127 -0.071213275 -0.017566778
-0.046477932 0.012299428 -0.06958115 0.044698246 0.30439678 0.057960168 0.055203516 0.075240426
-0.034657914 -0.016638976 -0.33566922 -0.013078081 -0.093216784 -0.020722575 -0.036693938 0.012734474
0.083338134 0.044697028 -0.06517177 -0.113868356 -0.056345023 -0.088004276 -0.03085794 -0.09641194
0.011915741 0.041729182 0.018567413 -0.05277373 -0.15829735 -0.23216617 -0.02169564 0.041512806
0.0649723 -0.030149803 0.04356707 0.05824823 -0.13027154 0.05457872 0.12260326 -1.3297784
-0.012330876 0.06132206 0.02413305 -0.02132202 0.101122335 0.23489435 -0.052762926 -0.8985682
0.08804182 -0.11133977 0.022658357 0.015297237 -0.16697809 -0.012575136 -0.057578214 -0.029778272
-2.1644952 0.074459836 0.05022045 0.04375859 -0.015009506 -0.022229157 -1.4103619 -0.118166596
0.05489441 -0.073371425 0.06014946 -0.08769663 0.030407405 0.037530653 0.030217415 0.110494465
0.060274374 0.1533559 -0.17795962 0.08342845 -2.0748346 0.092487 0.042119086 -0.037400488
0.085579135 -0.08722311 -0.0623824 -0.20341644 -0.0019758728 0.08999752 0.048659705 -0.10809179
0.06820336 -0.06248508 -0.022052338 0.11459029 0.19903536 -0.001936984 0.053992882 0.035649527
0.046169054 -0.017886063 -0.024476008 0.038786743 -0.051076554 -0.111548856 0.088500306 0.002166631
-0.0879334 -0.11197264 -3.034551 -1.2546371 -0.012518774 -0.03006494 -0.064973876 0.015569007
-0.035167407 0.062746756 -0.15086256 0.055477083 0.092013486 -0.11582926 0.018932693 -0.113206446
0.051665135 -0.022106137 0.13236804 -0.055633888 0.028396497 -1.6512194 0.0020100805 0.22803499
-0.004039707 0.19621691 -0.096046984 0.023495847 -0.13339767 0.18517768 0.01728176 -0.08220028
-0.06954731 0.06249533 0.103475 -0.024949457 -0.19153057 0.098016456 0.041272487 -0.08216284
0.1509333 -0.0741623 0.004531167 -0.89055544 -1.2245815 0.034603924 -0.47648948 0.05487987
-0.049495455 0.0035084146 0.07240983 0.017397474 -0.065799646 -0.25960186 -0.1559384 0.15189362
00000000: 036d a6bd 8a95 33bd 2c92 41bd ed99 b83c
00000010: 4f08 37bd d7c8 6fbd f13d 813d 29fc 21bd
00000020: 8fe5 813c a92c 3dbd b6bf 84bd 9604 f6bd
00000030: 6e79 cbbd f8e6 8dbd a1d7 04bd 2889 843c
00000040: 4487 073d 927f 41bd 86ad 9bbd e788 e9bd
00000050: eae7 3f3e e964 f4bd e83e e83d d06f d2be
00000060: 305e 1c3d 032d aebd 45ce 333a 23a7 e33c
00000070: a5c3 c93d 5a0b 613d e004 18bd 3e15 82bc
00000080: 9a71 75bb 29a1 a9bc 2b97 a7bd e101 483e
00000090: 98c3 acbd 0077 c6bb 8a30 80be 6eec 903c
000000a0: 7541 0abc 6671 6dbd 8cc5 c0bd bc87 823e
000000b0: 6972 533e 93c0 eabd 50ad e6bd 931d 08be
000000c0: 8d8b babc d95a 713d f656 9bbd c47b 103e
000000d0: 57b5 7f3e b195 743d bbdc cebd 1713 863d
000000e0: f719 193d 2700 8d3d 3e38 1f3e 12e1 c43c
000000f0: d97e f6bd a8b1 b6bd 53bb a63c 2fdf b2bd
00000100: 7079 79bd 9444 b2bd 9b4c cb3e 043c 013c
00000110: 9838 c13d 1775 95bc 8b5b ddbd d569 07be
00000120: 42ef 9dbd 7694 4e3c 2281 213d db37 523c
00000130: bf1e 92bd ce9c 37bd ae03 b23d 02da 893c
00000140: 163b a2be 906e 1fbd 251a 41bd e34a c0bd
00000150: 786a 50bc c43d d6bd 4f9f 26bd f64d 94bd
00000160: 7cda 5cbc 65a6 83ba 0e84 3cbd dda2 78bd
00000170: 6e79 ba3b 1fdc 253d 44d8 91bd 34e8 8fbc
00000180: a55f 3ebd 8a83 493c 9080 8ebd 8215 373d
00000190: e5d9 9b3e a467 6d3d 151d 623d a717 9a3d
000001a0: 75f5 0dbd 764e 88bc d6dc abbe 7345 56bc
000001b0: 71e8 bebd 64c2 a9bc 624c 16bd 41a4 503c
000001c0: 2fad aa3d 3b14 373d c778 85bd d033 e9bd
000001d0: 0aca 66bd 963b b4bd cac9 fcbc a073 c5bd
000001e0: 3d3a 433c 38ec 2a3d b01a 983c 4429 58bd
000001f0: b318 22be f8bc 6dbe 0ebb b1bc 5509 2a3d
00000200: 3210 853d b8fc f6bc 6273 323d b295 6e3d
00000210: e765 05be f08d 5f3d 6b17 fb3d 2e36 aabf
00000220: 7107 4abc d72c 7b3d adb2 c53c 84ab aebc
00000230: 3a19 cf3d 2588 703e f01d 58bd 9108 66bf
00000240: 454f b43d 1b06 e4bd 059e b93c 43a1 7a3c
00000250: 4efc 2abe f107 4ebc 22d7 6bbd 90f1 f3bc
00000260: 1787 0ac0 667e 983d f5b3 4d3d 353c 333d
00000270: 6eea 75bc ec19 b6bc bd86 b4bf 5401 f2bd
00000280: f6d8 603d c243 96bd 485f 763d 4a9a b3bd
00000290: f318 f93c beb9 193d 838a f73c ec4a e23d
000002a0: 43e2 763d 5409 1d3e 0c3b 36be 89dc aa3d
000002b0: 17ca 04c0 d369 bd3d 1085 2c3d 4131 19bd
000002c0: 1d44 af3d 08a2 b2bd b084 7fbd 664c 50be
000002d0: a57d 01bb 9f50 b83d 664f 473d 3a5f ddbd
000002e0: 34ae 8b3d 5bf0 7fbd 1ba7 b4bc 50ae ea3d
000002f0: edcf 4b3e 66e2 fdba a427 5d3d 3d05 123d
00000300: c31b 3d3d cb85 92bc e981 c8bc d9de 1e3d
00000310: a635 51bd ba73 e4bd a63f b53d 09fe 0d3b
00000320: 6d16 b4bd e951 e5bd 1536 42c0 f397 a0bf
00000330: 8b1b 4dbc c04a f6bc 0611 85bd 2615 7f3c
00000340: b30b 10bd 5f81 803d b77b 1abe f03b 633d
00000350: 9171 bc3d e437 edbd bc18 9b3c c8d8 e7bd
00000360: d29e 533d ee17 b5bc 7d8b 073e 5ce0 63bd
00000370: c59f e83c 285b d3bf 8ebb 033b 0182 693e
00000380: 855f 84bb 16ed 483e 48b4 c4bd 5d7a c03c
00000390: 6699 08be 389f 3d3e 7a92 8d3c 9f58 a8bd
000003a0: d26e 8ebd 1afb 7f3d b3ea d33d ce62 ccbc
000003b0: 9720 44be dabc c83d 570d 293d fe44 a8bd
000003c0: 428e 1a3e 67e2 97bd 2f7a 943b 71fb 63bf
000003d0: 16bf 9cbf d8bc 0d3d 6ef6 f3be b7c9 603d
000003e0: bfbb 4abd 6eed 653b 9b4b 943d 2685 8e3c
000003f0: f7c1 86bd 89ea 84be 51ae 1fbe 008a 1b3e

net.2.bias f4 [64]
-0.18830106 -0.044119608 0.050771117 -0.04241766 -0.16208851 0.0446307 0.04257394 -0.14767656
0.1576208 -0.15234151 -0.09629904 -0.119103655 0.09313687 -0.026750272 -0.056622062 -0.16240719
-0.113861404 -0.3221934 -0.1083642 -0.10669159 0.31543773 -0.32436967 0.08221347 -0.08013342
0.0013693084 -0.13708991 -0.11253072 -0.19268386 -0.06251165 -0.15681815 0.22267812 -0.046237245
-0.067724414 -0.005013026 0.13249534 -0.051715694 0.17174026 -0.0336087 -0.10629145 -0.19583417
-0.09482702 -0.13781056 -0.010374929 -0.01643481 -0.06983705 0.05766318 0.05633757 0.14053571
-0.08133522 0.100106664 0.08369717 0.009822512 -0.08511092 0.026904656 0.1852454 -0.1050457
-0.02937526 0.05150856 0.09179303 0.10770913 0.12337559 -0.13859624 -0.039267916 -0.10112869
00000000: fed1 40be c3b6 34bd 60f5 4f3d 24be 2dbd
00000010: 88fa 25be aece 363d 0362 2e3d 8638 17be
00000020: 5967 213e 6aff 1bbe 6e38 c5bd 9eec f3bd
00000030: 8bbe be3d 6323 dbbc 89ec 67bd 124e 26be
00000040: 2b30 e9bd 89f6 a4be 0dee ddbd 1f81 dabd
00000050: 0e81 a13e c813 a6be 895f a83d fe1c a4bd
00000060: 5e7a b33a 4c61 0cbe 8276 e6bd eb4e 45be
00000070: 1c06 80bd f094 20be bc05 643e 4463 3dbd
00000080: 19b3 8abd 4f44 a4bb dcac 073e d6d3 53bd
00000090: aedc 2f3e 47a9 09bd 55af d9bd c188 48be
000000a0: ab34 c2bd 361e 0dbe 9bfb 29bc 4ba2 86bc
000000b0: ba06 8fbd 3a30 6c3d 39c2 663d 98e8 0f3e
000000c0: 1493 a6bd b904 cd3d 6c69 ab3d 9aee 203c
000000d0: a24e aebd 2767 dc3c f8b0 3d3e 3322 d7bd
000000e0: 63a4 f0bc a4fa 523d fcfd bb3d 9b96 dc3d
000000f0: 57ac fc3d 2cec 0dbe 65d7 20bd 8f1c cfbd

coord_head.weight f4 [2, 64]
-0.009492138 0.299677 -0.05335871 0.016058806 -0.0070502027 0.041622452 0.0007477843 -0.012039442
0.082271524 -0.011826793 -0.09077557 0.010064508 0.09877583 -0.024931734 -0.1091462 -0.04086507
-0.06987551 -0.119615264 0.047578003 0.008529302 -0.75675154 -0.056126352 -0.012821588 -0.06608376
-0.010130563 -0.07026621 0.029806245 -0.046435606 -0.027872758 0.027476827 -0.06997188 -0.0007287321
-0.058890413 0.45656246 -0.054183334 -0.093913086 0.018224485 -0.002183036 -0.032410134 -0.010387561
-0.019356955 0.027528955 0.11951699 -0.041320864 -0.011036327 0.41724274 -0.7977802 0.70075315
-0.0038861996 0.6290503 -0.14566423 -0.022769475 -0.003096862 0.004094073 0.022483686 0.043452334
-0.05806823 -0.07985413 0.0917772 -0.13041617 0.1280012 -0.01838215 0.06652517 -0.009787759
0.0018780929 0.22021015 -0.047168337 0.0022046713 0.029065255 -0.09793609 -0.007497777 0.013553701
0.09903465 0.052655958 0.052184142 0.025567457 0.21592607 0.037002176 0.06041142 -0.030497197
-0.0512615 0.0064165387 -0.047621656 0.01796175 -0.22506453 0.045445345 0.015893355 -0.040363718
-0.048905127 -0.027455814 0.010082711 -0.02862782 -0.00866967 0.23500481 -0.69910616 -0.0013052815
0.08948832 0.4956457 -0.12870798 0.030863786 -0.056775313 0.056471076 0.007818194 0.124307856
0.03411238 0.0027224435 -0.08635218 -2.6491965e-05 0.018954372 0.03753852 0.264067 0.06661004
0.047202744 -0.35834527 0.3508796 -0.080903694 -0.020923583 0.0014218943 -0.04966537 -0.048218478
0.021954091 0.124956064 0.17979611 0.3650392 0.22673455 0.0070831077 -0.038014837 -0.038890425
00000000: ea84 1bbc 446f 993e aa8e 5abd c28d 833c
00000010: 6305 e7bb 4e7c 2a3d f406 443a 1441 45bc
00000020: f97d a83d 2ac5 41bc 8be8 b9bd 9be5 243c
00000030: fb4a ca3d a33d ccbc 0b88 dfbd 2262 27bd
00000040: e41a 8fbd d9f8 f4bd 27e1 423d 7cbe 0b3c
00000050: 78ba 41bf bfe4 65bd a311 52bc ec56 87bd
00000060: a9fa 25bc bbe7 8fbd 3a2c f43c 4333 3ebd
00000070: 6955 e4bc 1517 e13c 6b4d 8fbd 6208 3fba
00000080: 1337 71bd 8ec2 e93e 58ef 5dbd 8155 c0bd
00000090: 844b 953c 4411 0fbb 7dc0 04bd 9730 2abc
000000a0: 7a92 9ebc 6784 e13c 53c5 f43d 1140 29bd
000000b0: b6d1 34bc d7a0 d53e 533b 4cbf 8f64 333f
000000c0: 9caf 7ebb 7109 213f 0129 15be 0d87 babc
000000d0: b9f4 4abb 9327 863b b52f b83c 13fb 313d
000000e0: f4d8 6dbd 908a a3bd aff5 bb3d d18b 05be
000000f0: bf12 033e 2a96 96bc 593e 883d d65c 20bc
00000100: 572a f63a c57e 613e 9633 41bd 3f7c 103b
00000110: 421a ee3c b792 c8bd eaaf f5bb 5810 5e3c
00000120: aed2 ca3d c6ad 573d 0abf 553d d872 d13c
00000130: b91b 5d3e 988f 173d f771 773d 42d5 f9bc
00000140: 94f7 51bd d441 d23b ed0e 43bd 8524 933c
00000150: 5177 66be e624 3a3d c832 823c 6d54 25bd
00000160: be50 48bd 04eb e0bc f531 253c e484 eabc
00000170: 3b0b 0ebc 1aa5 703e 9ff8 32bf fb15 abba
00000180: a745 b73d 46c5 fd3e 06cc 03be 0dd6 fc3c
00000190: 3b8d 68bd 374e 673d e217 003c 1e95 fe3d
000001a0: 6cb9 0b3d 066b 323b 69d9 b0bd 103b deb7
000001b0: 3346 9b3c fec1 193d ca33 873e d86a 883d
000001c0: aa57 413d 0879 b7be 7ea6 b33e d6b0 a5bd
000001d0: ef67 abbc db5e ba3a ea6d 4bbd bd80 45bd
000001e0: 11d9 b33c f7e8 ff3d 791c 383e 6be6 ba3e
000001f0: 1a2d 683e 6a19 e83b 72b5 1bbd 914b 1fbd

coord_head.bias f4 [2]
0.7523619 0.2590284
00000000: ca9a 403f 5f9f 843e
