src2/outputs/checkpoints/mlp_dl_geo.pth (torch, 60902 bytes, 6 tensors)

net.0.weight f4 [128, 47]
00000000: 81e2 153e 8ed8 123e 5cd4 c23c 9e9a d03d
00000010: d546 53bd 0526 0c3d f52e 7abc 6dec e63d
00000020: e88a 373e e249 50bd f581 c83d 2bcb 7e3d
00000030: 5d92 253e 5097 793d 38b8 be3d d7e4 5bbd
00000040: af71 063e ba93 043d d3a0 45bd bc48 75bc
00000050: a327 44bd 4d82 923c 74d3 22bd 5e50 863d
00000060: da57 83bd 17be 21bd 60bd ea3b 972a 20be
00000070: ca47 cc3d ceb2 2ebe 8588 263e 1a0f 0ebe
00000080: 21a6 383d b551 89bc f0d3 20bd 2dcb a63d
00000090: c920 b03c 408f 943d bab6 163c 4d5d 50bd
000000a0: b337 913d bd98 51bd a94c 233d 3e7d 003e
000000b0: ed69 053d 46b3 35bb c644 a43c 04d0 8d3d
000000c0: b08b 353d c120 14bd ffdc 27be 0601 69bc
000000d0: e705 f4bd 29ee 9d3c f3ab 4a3d 4616 b03d
000000e0: 6ab8 1a3d c881 77bb ae4d 4c3e a03c b6bd
000000f0: dd9e 093e db96 24be 54f6 af3b dc60 01be
00000100: 81d5 f2bb f8c4 b7bd 17bc 1c3e 8c73 b8bd
00000110: 0c8f 70bd 22bd 87bd fe0d ff3d 224d a73d
00000120: 365c 0e3e 2262 e5bd 9b2f 72be 3e0f 36be
00000130: b0a0 4dbd 2a57 6e3c 7ba5 e43d 5c39 ab3d
00000140: d2ef 3dbe 405f 17be e95b 143e 6cc3 c8bd
00000150: ad25 4c3d 0180 03bd d25f b33d 0346 b4bd
00000160: f8c1 d8bd eb3b 93bc d649 96bc 760e aabc
00000170: ee02 be3d 6a1b f63d 2632 a7bd 4978 ebbd
00000180: 21a0 2c3e 770c a6bc 5fe9 9b3b d8e8 3dbc
00000190: b267 1dbb 9f46 b13d 942a 2f3d 93f3 b5bd
000001a0: 4392 4bbc da31 6fbd 644a 80bd 0992 eebc
000001b0: 52ca 1ebe ac9a 0fbe 722e 423e 0e25 253d
000001c0: 3bec 9d3d 3a0e efbd 8a42 0bbd 2fa4 003c
000001d0: e0ee 413c bee5 1abe 919c 9dbb 91d9 96bc
000001e0: fb79 4e3d c98c 833d 32e8 3dbd c2e8 dfbd
000001f0: bfab b1bd bba8 98bd 1775 89be 8152 0ebd
00000200: c698 163e 05d8 77bd 7307 343e 46bc a13d
00000210: 657d 74bd e633 b53d 0a8d 58bc 41d1 9fbd
00000220: 49dd 1bbd 0198 f1bd fc21 ab3c 1c98 c8bb
00000230: 0a9b e43c fa2a 09be 8105 ca3d 865c ddbd
00000240: 3e99 f2bc 2b6a a13c 100b 96bc 1fce c13d
00000250: 9e95 143e 408a eebd bfb4 f23c 12e6 2dbd
00000260: 77e0 413d becd 5bbe 25a9 f63d ecaa 22be
00000270: c48c d53d 2b22 8f3d 69d8 0bbc f6e4 04be
00000280: 6d36 0b3d 4c5a 833d ab25 8a3c 8579 ecbd
00000290: bdd1 6c3d 2111 98bc b4bc 9bbd ba34 123e
000002a0: 9554 3a3d 9882 69be 088e 26be 933d a13c
000002b0: acf0 093d f771 44bd ddfa a4bd c8a8 8ebc
000002c0: a51e 97bd 278a e43b 22cd ec3b 4e50 04be
000002d0: 5cd9 673c 2579 0e3e 3d98 e2bc 49bd 7abd
000002e0: 5bce 563d e5cd 5c3d f22d c03d 8f30 34bd
000002f0: 2ddb f3bb 9da1 683d 0613 0b3d 42fa 9bbd
00000300: 5ff5 873d dcf8 ec3d fc7c 9abd b889 0b3c
00000310: 0e06 be3b 9aee e6bb 6372 213d 17ec 013e
00000320: 88f0 15be 526f 8ebc 8a8e 143e 74cb b83c
00000330: f334 3bbd 5bf2 29be bce2 cbbd 5fe9 f4bd
00000340: bc03 ebbb 7bbb ad3d 6cc4 cb3d 4ff0 b63d
00000350: fbb2 fabd ed33 b6bd 041c 58bc 25ab 253e
00000360: 7e33 343d 5a70 09bd 6967 8a3d 311d 89bd
00000370: da67 10be 526a 0e3e 5c1a eebd 49d3 263c
00000380: 1f7f 11be 5305 cb3d 9d1b 0f3e 2f1e 0b3d
00000390: 8247 8fbd e4c6 31be cf29 01be f814 ca3d
000003a0: 87e5 313d e5a5 1a3e c169 4a3d 9b6f b13c
000003b0: 28d1 8fbd 910e ccbd f924 fbbd 947f 24bc
000003c0: 84b8 9a3d da03 97bd e295 9ebb 6324 93bd
000003d0: fd3b dc3c f594 dcbd 89e5 1cbe 0662 d53d
000003e0: bd77 21bd 019f 453d f03f dbbd 3de2 a6bd
000003f0: ddca efbc 07c0 c7bd 59eb 3dbe 6175 9cbd
0.14637186 0.14340422 0.023782901 0.10185741 -0.051581223 0.034215946 -0.0152699845 0.112755634
0.17924082 -0.05085171 0.09790412 0.062205475 0.16169114 0.06093532 0.09312481 -0.053685036
0.13129304 0.032367446 -0.048249077 -0.0149709545 -0.047889363 0.017884398 -0.03975244 0.065582976
-0.06413241 -0.039487924 0.0071636885 -0.15641247 0.0997463 -0.17060396 0.16263016 -0.13872948
0.045080308 -0.016762594 -0.03926462 0.081442215 0.021500008 0.07253885 0.009198839 -0.05087023
0.07090702 -0.051171053 0.03986803 0.12547776 0.03257172 -0.0027725263 0.020052325 0.069244415
0.04432267 -0.03616405 -0.16392897 -0.014221435 -0.11915188 0.019278603 0.04948039 0.08597998
0.037773527 -0.0037766565 0.19951507 -0.08898282 0.13439508 -0.16073172 0.005369941 -0.12634605
-0.0074107056 -0.08973116 0.15306126 -0.09006414 -0.05873017 -0.06627871 0.12453841 0.08169009
0.13902363 -0.11200358 -0.23650973 -0.17779252 -0.05020207 0.014547149 0.111643754 0.0836055
-0.18548515 -0.14782429 0.14488186 -0.09802899 0.049840618 -0.032104496 0.08758511 -0.08802416
-0.105838716 -0.017972907 -0.018345755 -0.020758849 0.092779025 0.120169476 -0.08163862 -0.11497552
0.1685796 -0.020269616 0.0047580446 -0.011591159 -0.0024018106 0.08656048 0.042765215 -0.08884349
-0.012425008 -0.05839715 -0.06264189 -0.02912237 -0.15506867 -0.14023846 0.1896303 0.04031854
0.07711073 -0.116726354 -0.033999003 0.007851644 0.011836737 -0.15126702 -0.004809924 -0.01841429
0.0504093 0.06423337 -0.046364017 -0.10933067 -0.08675336 -0.07454058 -0.26847145 -0.03474665
0.14706716 -0.060508747 0.17580967 0.078972384 -0.059689898 0.088477895 -0.01321722 -0.07803584
-0.03805283 -0.117965706 0.020890228 -0.0061216485 0.02790596 -0.133953 0.09864331 -0.10808663
-0.029614087 0.019703945 -0.018315822 0.094631426 0.145102 -0.11647463 0.029627202 -0.04245574
0.047333207 -0.21465203 0.120439805 -0.15885514 0.104272395 0.06988939 -0.008535483 -0.12977967
0.03398745 0.06413707 0.016863665 -0.115466155 0.05781721 -0.018562855 -0.07604352 0.14277926
0.04549082 -0.22803724 -0.16265118 0.019682681 0.03367679 -0.047960248 -0.08055661 -0.017414466
-0.07378892 0.006974477 0.007226602 -0.12921259 0.014150944 0.139134 -0.027660483 -0.061215673
0.05244289 0.053907294 0.093837634 -0.04399162 -0.0074418993 0.05679475 0.03395369 -0.07616092
0.06638598 0.11570904 -0.0754337 0.008516721 0.0057990616 -0.0070474865 0.03941573 0.12687717
-0.14642537 -0.017387066 0.145075 0.022557952 -0.045704793 -0.16596358 -0.099553555 -0.119585745
-0.007172076 0.08483025 0.09949574 0.08932554 -0.12241169 -0.08896623 -0.013190273 0.16178568
0.04399442 -0.033554412 0.06758005 -0.06695021 -0.14102116 0.13907745 -0.116261214 0.01018221
-0.14208649 0.09913125 0.13975377 0.033964332 -0.06996061 -0.17361027 -0.12613605 0.09867281
0.043431785 0.15102346 0.04941726 0.021659663 -0.07022315 -0.09963716 -0.12262911 -0.010040183
0.07554725 -0.073737815 -0.004839645 -0.071846746 0.026884073 -0.10770599 -0.15321936 0.10419087
-0.039420832 0.04824734 -0.107055545 -0.0814862 -0.029271537 -0.09753423 -0.1854681 -0.07639576

net.0.bias f4 [128]
00000000: 93a0 113d 2932 7e3d 5ea9 15be eebd 1d3e
00000010: 5806 b5bb 6271 50be 3a43 4dbd 168e 7cbe
00000020: 8035 95bd e0b1 24be 2849 45bd 108d 4cbd
00000030: 022b 35be f912 00be c2cb 413d eacf dbbd
00000040: 26d3 ab3a 9aa7 223e dcc5 9abc 7b09 23be
00000050: 4841 b0bd 6b90 10be 2b55 c53d 0f66 3dbe
00000060: 10da 62be 0d5e 08bd 7fa1 823d 3503 113d
00000070: 3de6 653c 7900 393c f626 6bbe 7196 a93d
00000080: fe05 2e3d 7c5f 683d bf06 0b3e f64f 4c3d
00000090: 50aa e33d 8f2d 4d3d b6e1 c6bd 25e7 3b3e
000000a0: ea61 1e3e 4278 f53d dd86 323e 869f 413d
000000b0: c68a ea3d 53d3 2f3e 05f8 6bbe 006b 41be
000000c0: b8ef cfbd 0a32 d63d a20d 2f3e 39c7 283d
000000d0: 080a 57bd 4c1a efbd 15d9 1d3e ce2f 453e
000000e0: 6ddb bf3d 27d6 94bc 07bc 3d3e e73a 1e3e
000000f0: 3e3a 90bd 402e e5bd 1793 af3d 9ed5 7cbd
00000100: 2e1c 1a3e 75cc 173d 4ce7 3fbc 5015 12be
00000110: e124 a7bd 7a69 96bd 5e3a b6bd 1729 273b
00000120: 861c 363c 9245 61bd f342 91bd 4427 72be
00000130: 76f1 0abe 5a11 e6bd 8cb6 da3d 1ed6 85be
00000140: 5d1d 223e 0ccd 033e ea7c 1e3e fe0e 86be
00000150: 1a45 96bd f58c a23c 0b32 9cbd 6f1c 953c
00000160: 7340 1a3e ef96 a8bd 8ed1 763d f422 d6bd
00000170: 2920 6ebe 68fb 403d c213 4b3e 7b94 323e
00000180: cc3c 95bd 36f0 093d e2a4 c73c 53fb 2bbe
00000190: dfd5 d1bd e79c 303e 71ad 793c 5383 b3bc
000001a0: 5a6e 03be 9a23 14be c7ce 793d d184 e6bd
000001b0: 2203 07bb 8004 b9bd f9aa a73d 88c8 5fbd
000001c0: 5548 13be c4f5 0f3a 2a70 0bbe 5281 71bd
000001d0: 9d7f 4f3e 0022 27be c88e 19be e23b 613d
000001e0: 7b12 8bbd cd7c e4bd d4df adbd 022a 4a3c
000001f0: 791a 413e d7d1 33be cb48 21bc 4277 e3bc
0.035553526 0.062059555 -0.1461539 0.15404484 -0.005524438 -0.20355752 -0.05011294 -0.24663576
-0.07285595 -0.16083479 -0.04816547 -0.049939215 -0.17692187 -0.12507237 0.04731346 -0.10733016
0.0013109192 0.15884247 -0.018893175 -0.15921585 -0.086062014 -0.14117591 0.09635385 -0.18495964
-0.22153497 -0.03329282 0.06378459 0.03540345 0.014031944 0.011291617 -0.22964081 0.082806475
0.042486183 0.056731686 0.13576792 0.049880944 0.11116469 0.050092276 -0.0971102 0.18349893
0.15467039 0.11985828 0.17434259 0.047271274 0.1145225 0.17170458 -0.2304383 -0.18888474
-0.101531446 0.10458763 0.17095044 0.04120562 -0.0524998 -0.116749376 0.15414841 0.19256517
0.09368024 -0.018168522 0.18528758 0.15452157 -0.07042359 -0.11190462 0.08572977 -0.06172716
0.15049812 0.03706022 -0.01171286 -0.14265943 -0.08161331 -0.07344337 -0.088978514 0.002550667
0.011115199 -0.054997988 -0.07092848 -0.23647791 -0.13568673 -0.11233778 0.10679349 -0.2613992
0.15831514 0.12871188 0.15477338 -0.26183313 -0.07337399 0.019842604 -0.076267324 0.018202035
0.15063648 -0.08231913 0.06025844 -0.104558855 -0.23254456 0.04711476 0.19831756 0.17439453
-0.07286987 0.03367635 0.024370614 -0.16795091 -0.10245871 0.17247353 0.015239106 -0.021913206
-0.12835065 -0.14466706 0.060988214 -0.112558015 -0.0020601233 -0.090340614 0.08186907 -0.0546346
-0.14383061 0.0005491639 -0.13617006 -0.05896122 0.20263524 -0.16321564 -0.14995873 0.05498875
-0.06790634 -0.11156616 -0.084899575 0.012339117 0.18857755 -0.17560516 -0.009844015 -0.027766827

net.2.weight f4 [64, 128]
00000000: a632 42bd fb37 153d 98f8 adbc b5da d23d
00000010: 9328 c6bd 7823 af3c 2e81 fc3c 1189 0ebd
00000020: 282a 3cbd b3de 183e 20f2 abbd ab0c f83c
00000030: 7139 9f3d e347 df3c 7363 d33c c3e1 513c
00000040: 0bf8 86bb 526b a83c f0fb c23c 19d1 b33d
00000050: 18fc 323d 96fe ad3c 90af f23b c51c 49be
00000060: dece b33b 9f62 153d 0ba9 97bd c00e a23d
00000070: 458f fdbc 889e 513d f55e ab3d 4ecc b73d
00000080: 3adc 7ebc ae3a bb3d e722 003e bb5a 213d
00000090: 869e 523d 683b fe3c 67d1 f5bd b2ee a73c
000000a0: f3e1 8fbd c01d a63d dcf9 d43d cab2 1cbe
000000b0: d00c 8f3d 6551 7dbc 27c3 92bd f9aa 893d
000000c0: 06bf e7bd 0d30 92bc 45de 27bd 5895 a1bd
000000d0: a0c4 66bd 0d31 aabd d72a 993d cc58 973d
000000e0: 89cf 513d bc05 273d 3d76 913c 9fe9 2d3c
000000f0: d9ff 75bd 911c d7bc c11e b4bd 6557 663c
00000100: 38de 4fbd fa00 47bd 270d 6dbd 3486 95bd
00000110: e134 89bc 0291 a8bd 49c7 43bd ed18 afbd
00000120: d090 9e3d 0de8 263c be42 f1bd 86ae 25be
00000130: 5a4f 1abd 83b0 b83c 69c0 a93d 2481 f0bc
00000140: 6304 763d bde7 62bd fb9d 93bc 1ba1 82bb
00000150: a1eb 9abd e159 f63c be0d 3d3d dd10 ca3c
00000160: d2d9 44bd 741c 283c 8202 e8bc a86f f73c
00000170: aea3 00bd bb05 34bd 6c6e 663d a4cd 47bb
00000180: 065a 89bd c1cf 3d3d f699 cfbc f078 5fbd
00000190: 6e51 99bd 4c19 2f3d 81ee cebc fa46 513c
000001a0: b327 85b8 8237 53bd 83cf 1bbd 20f6 543d
000001b0: 67e4 6cbd 00ef 18bd c399 3c3d 83fd 153d
000001c0: b582 0ebd 9858 453c 51f0 5ebc f96a 7f3d
000001d0: e86f 69bd 6dca 6abd 4c81 82bc a84f dabc
000001e0: c60f 953c bffc 3c3b 670f 4b3d 2cae 0ebc
000001f0: 23b1 e4bc 6653 ec3c 8f54 a53d 35c0 d73b
00000200: c577 7abd a9db c13d 905f b53d 40a3 b33d
00000210: d86a 2fbb 814f bb3c 482c 33bb 0541 8fbb
00000220: ce4c 9ebd f438 8a3c 5757 db3b c334 193d
00000230: f93e 603d c164 873d f95a 353d c579 65bc
00000240: e22b 8a3d f410 fc3c b2ee cd3a 8200 febc
00000250: ae9a 51bd 60a3 1dbd fa21 9c3c de02 883d
00000260: c480 753c c98a 833b f476 00bd abaf d5bb
00000270: e955 f0bb b920 1c3d 8a5a 593c 3b6b cebb
00000280: 875e b43c 6617 933b c806 423c 6a6b 8d3d
00000290: 33dc 3bba f07b f13d c80e 37bd 6e11 d23d
000002a0: 5b12 2e3d 7d29 0a3d 41e3 13bc 2816 8b3b
000002b0: 973d 65bd 02fa 51bd 208c a03d 894d d43d
000002c0: 4e77 ca3c ddde a0bc 81a8 063d 9ca2 fb3a
000002d0: 8c04 57bd d571 dfbd 9eb1 d83c a9b2 3f3b
000002e0: 411d 75bb b2a0 823c f9dc 763d e06e 10bd
000002f0: c2f8 26bc 0a24 533d 6c4c bb3d d457 f83d
00000300: e608 ad3c cd65 533c 67e1 a33d 92a6 b93d
00000310: 761f a03d 47b5 5a3d 042b 453d a94d cf3c
00000320: 3dbf 853d 8ae3 0a3d db42 7cbd 4021 91bd
00000330: 81bf 7cbd 3815 fdbc 7967 633c a925 c3bc
00000340: 45e0 9ebd 5455 21bd 1472 4d3d d699 ca3c
00000350: d073 f6bc 7655 db3c 330b 81bc 4b6b 39bd
00000360: d018 cbbb bcc8 06bd 7ef3 b1bd 2982 81bd
00000370: eee7 b23b a1ac 0a3d f5c9 ad3d fb44 143d
00000380: d1fe 643d 668d 3b3d 2ed7 5dbd e048 85bc
00000390: e5de 5f3c 87be 72bd 071e 0e3c 86fd 303d
000003a0: 8451 12bd 8528 81bd 743d 4ebd 5b89 d13d
000003b0: 5364 403d 7e9f 3cbd 9a51 903d ef83 14bd
000003c0: 6cb7 5e3d 390d b6bc f24b 103d 8520 b23d
000003d0: 4d3b 603d 8788 e83c c5ec 8dbb bd83 153d
000003e0: 7297 da3d 8f46 66bd 541a 323c 8085 2a3d
000003f0: 1f89 6abc 5b1e 9ebc d418 403d c2f2 8c3d
-0.047411583 0.03643034 -0.021236703 0.10295621 -0.09675708 0.021379218 0.030823316 -0.034798685
-0.04593864 0.14928703 -0.08395791 0.030279478 0.07774628 0.027255958 0.025804257 0.012810173
-0.0041189245 0.020558987 0.023801774 0.087801166 0.043697447 0.02123956 0.0074061826 -0.19639881
0.005487307 0.036471006 -0.07405289 0.079129696 -0.030952105 0.051176578 0.08367721 0.08974515
-0.015555436 0.09142052 0.12513314 0.039393168 0.05142071 0.031034186 -0.12002831 0.020499561
-0.07025518 0.08111143 0.103992194 -0.15302578 0.06984866 -0.0154613005 -0.071661286 0.067220636
-0.11315732 -0.017845178 -0.040983457 -0.07889813 -0.05633986 -0.08310137 0.07478874 0.073899835
0.05122331 0.040776953 0.017756576 0.010614782 -0.06005845 -0.026258739 -0.08794928 0.014058922
-0.050749034 -0.048584916 -0.05787387 -0.07300988 -0.016748847 -0.08230783 -0.047797475 -0.08549676
0.077424645 0.010187161 -0.11780308 -0.16179857 -0.03767333 0.022545105 0.082886524 -0.029358454
0.060062777 -0.055396784 -0.018019667 -0.0039864904 -0.07564474 0.030072154 0.046155684 0.024666244
-0.048059292 0.01026069 -0.028321508 0.030204609 -0.031406097 -0.043950778 0.05625765 -0.0030487562
-0.06706624 0.046340708 -0.025341969 -0.054558694 -0.074862346 0.042748734 -0.025260212 0.01277327
-6.349329e-05 -0.05156661 -0.038039695 0.051992536 -0.05783501 -0.037337303 0.046045076 0.03661872
-0.03479262 0.012045048 -0.013607101 0.062357876 -0.056991488 -0.057321955 -0.015930794 -0.026649311
0.018195998 0.0028837172 0.049575236 -0.008708518 -0.027916497 0.028848361 0.08072769 0.006584192
-0.061149377 0.09465725 0.08856118 0.08771372 -0.0026766565 0.022865059 -0.0027339626 -0.0043717646
-0.07729493 0.01687286 0.0066937613 0.037403833 0.054747555 0.06611014 0.04427621 -0.014006083
0.06746651 0.030769803 0.0015711396 -0.031006102 -0.051172905 -0.038485885 0.01905917 0.06641172
0.014984313 0.004014347 -0.031363443 -0.0065211854 -0.00733446 0.038117144 0.013266215 -0.006299404
0.02201773 0.0044888733 0.011842437 0.06905253 -0.0007166296 0.11791217 -0.04469183 0.10257231
0.042497974 0.033730973 -0.0090263495 0.0042445846 -0.05596694 -0.051263817 0.07839227 0.10366351
0.024715092 -0.01963752 0.03287554 0.0019198242 -0.05249457 -0.109103836 0.026451882 0.0029250777
-0.003740147 0.015945766 0.06026933 -0.03526199 -0.010191144 0.05154804 0.09145436 0.12126127
0.021122407 0.012902689 0.080019765 0.09064974 0.07818501 0.053395536 0.048136726 0.025305586
0.065306164 0.033908404 -0.061587196 -0.0708642 -0.06170607 -0.030893907 0.01387965 -0.023821669
-0.0775762 -0.039388016 0.05015762 0.024731558 -0.03008452 0.02677415 -0.01575241 -0.04526834
-0.0061980262 -0.03290628 -0.086890206 -0.06323654 0.005459777 0.033856038 0.08485786 0.036198597
0.055907074 0.045789145 -0.05416029 -0.016270101 0.013663982 -0.059263732 0.008674151 0.04321053
-0.03572227 -0.063065566 -0.050351575 0.102312766 0.046970677 -0.04605054 0.07046814 -0.036258634
0.054374143 -0.022223102 0.035228677 0.08697609 0.054744054 0.028385414 -0.0043312036 0.03650259
0.10673417 -0.056219634 0.010870535 0.04163122 -0.014314919 -0.019301584 0.046898678 0.0688224

net.2.bias f4 [64]
00000000: f676 833c 2a04 f13d 8989 963d b76e da3d
00000010: 2f24 e33d b28a 24bd de7b b8bd df73 013d
00000020: bfa5 043e 2898 103d a33e 163e ec64 9fbd
00000030: 0c75 183e b006 eb3d fa22 513d 988f 123d
00000040: 6d26 853d 1d7b dfbc 4faa d93b dcfd ee3d
00000050: 6c5f 1a3e 0db8 c93c 0821 e1bc 4a29 b0bd
00000060: f2cd f63d 1823 85bd fa3d 173d a93d aa3d
00000070: 3af7 483d d672 6c3d 30de 6c3d e096 86bd
00000080: b5a7 613d de0c 11bd f633 4ebc cddd e33d
00000090: 6dcc 563c 1fc2 a1bc eb0f 68bd f57b a9bd
000000a0: 3d4a 503d 0915 b8bb 3b69 173e ca28 a7bc
000000b0: 2578 51bd 8af3 773d 52c1 53bc d114 fe3d
000000c0: e8fa d73b 647d 7d3d 2dc7 393d 7bb4 1d3d
000000d0: da98 f8ba 8786 283e 0ea1 633d 48f3 9f3c
000000e0: 8e4f 343d 27ef 8a3d 487d ebbc 11eb 72bd
000000f0: 8848 9c3c 1201 0f3e 81bd c1bc fa7f 223e
0.016047936 0.11768372 0.073504515 0.106656484 0.11090886 -0.040171333 -0.09008001 0.031604644
0.12953852 0.035301358 0.14672332 -0.07782921 0.148884 0.11475885 0.051058747 0.035781473
0.0650147 -0.027280385 0.006642617 0.116695136 0.15075463 0.024623895 -0.02748157 -0.08601625
0.12051 -0.06500834 0.03692434 0.08312542 0.0490639 0.057726704 0.057829082 -0.06571746
0.05509158 -0.03541266 -0.012585631 0.111262895 0.013110262 -0.019745884 -0.056655806 -0.08275596
0.05085205 -0.005617742 0.14786236 -0.020405192 -0.05113997 0.06053499 -0.012924509 0.12406314
0.0065911897 0.06188716 0.045355964 0.038502198 -0.0018966452 0.16457568 0.055573516 0.019525185
0.04402118 0.06783896 -0.028746262 -0.059306208 0.019077554 0.13965252 -0.023649933 0.15869132

coord_head.weight f4 [2, 64]
00000000: 3e5d 10ba 25f8 7a3d 8003 303d 7aa1 bd3d
00000010: 43c8 0f3d 02d7 4dbc 74ce 2b3d e5a8 f8bc
00000020: 94df 25bd 194b 94bd 5658 cd3d 26a8 b6bc
00000030: 0a9a 8d3d d620 bdbc 778c 57bd dc83 183d
00000040: 2000 1cbd 58c7 013b 3b3f a8bc 8a86 143c
00000050: eb49 a53d 44e9 bebd 843e 2e3d abe9 b3bc
00000060: 69d0 5dba e479 71bc 3ad4 39ba ed3e a53d
00000070: 5a35 3f3d 094b b9bc 7bdf 543b 14e0 a1bb
00000080: 2d45 733d 376c 233c cc5c dd3d 5adf 573d
00000090: 5868 89bd 953c 953d 9608 a33c b553 33ba
000000a0: 84f2 17bd 3936 75bd 2cbc 863c cb98 b1bc
000000b0: 1838 673c 6fee 423a 0abe 0cbc 20c7 1d3e
000000c0: ac6f 2cbd 93eb 10bd 6e6c d53d 3daa 203d
000000d0: 5297 dc3d cd04 b63d c553 15bd 8153 0e3d
000000e0: 63b2 75ba b786 cc3d 6ac2 27bb 9bf1 f53c
000000f0: 29fc ffbb 8423 383d f51a e4bc 3fa6 6d3d
00000100: b7f6 c63c 739d 983d 329c 29bd 3225 59bc
00000110: 7ea7 313d 6ebb 7fbd 00e1 99bd c2d5 3c3d
00000120: 124b bd3d 2135 5ebd 3817 bc3b 0a14 f6bc
00000130: 3b95 cc3c 453f c33d a473 8abd 75b0 5d3d
00000140: dd41 783d 112f 9c3b 08a5 3b3d 3fc8 f03c
00000150: 5fa5 533d 3596 123d 703b d9bc 0e06 a9bd
00000160: 19ac 803d a769 e23b 4ab5 6cbd ad1c 00bc
00000170: 49be 7bbd 4fbd bd3d aa51 c13c 4540 38bd
00000180: d0db 613d e065 2abd 634c ff3d 913e 1c3c
00000190: f03d 58bc 2da0 043d e05f c2bd 9436 1ebd
000001a0: 7877 b73d cd16 943d 8e5a 863a 92bf 013d
000001b0: 277a 37bd 0cd3 b4bd a1a7 3d3b 28d6 63be
000001c0: f406 913d 4b6d 1ebc b870 2fbd d45f ef3c
000001d0: 0cf5 24b8 648a a33d 4458 233d 5467 53be
000001e0: 39b3 083d 6800 533c 3f48 a53d 8528 64bd
000001f0: a093 a93a 1e49 fd3c 5d03 3ebd e8c7 253d
-0.0005507058 0.061271805 0.042972088 0.09259315 0.035103094 -0.012563469 0.041944936 -0.030353973
-0.040496424 -0.07240886 0.10026614 -0.022296976 0.06914146 -0.023086946 -0.052624192 0.037235126
-0.038086057 0.0019802656 -0.020537963 0.00906528 0.08070739 -0.09321836 0.04254009 -0.021962008
-0.00084615365 -0.014738534 -0.0007088814 0.08068643 0.04668174 -0.022618787 0.0032481838 -0.0049400423
0.059392143 0.009974531 0.10808715 0.05270324 -0.06709355 0.07286946 0.019901555 -0.00068407814
-0.037096515 -0.059866164 0.01644715 -0.021679303 0.014112495 0.0007436042 -0.008590231 0.15407991
-0.042098686 -0.03538091 0.10421072 0.039224852 0.107710496 0.088876344 -0.036456842 0.034747604
-0.000937259 0.09986632 -0.0025598058 0.030022433 -0.0078120423 0.044955745 -0.027844885 0.058019873
0.024287565 0.07451906 -0.041408725 -0.013253497 0.043372624 -0.062434606 -0.075136185 0.046102293
0.09242834 -0.054249886 0.0057400726 -0.030038852 0.024973502 0.09533552 -0.06760338 0.05412336
0.060609687 0.004766353 0.045811683 0.02939236 0.051671382 0.03578778 -0.0265176 -0.08253108
0.06282825 0.0069095674 -0.05779008 -0.007819337 -0.061460767 0.092646234 0.02359851 -0.044983167
0.05514127 -0.04160106 0.124657415 0.009536401 -0.013198361 0.032379318 -0.09490943 -0.03862627
0.08958334 0.072309114 0.0010250376 0.031676836 -0.044794228 -0.088293165 0.0028939026 -0.22249663
0.07081404 -0.009669612 -0.042832106 0.0292205 -3.9328865e-05 0.0798538 0.0398791 -0.20644885
0.033374045 0.012878515 0.080704205 -0.055702705 0.0012937672 0.030918654 -0.046389926 0.04047385

coord_head.bias f4 [2]
00000000: 43a0 e23c 1835 073e
0.02766431 0.13203847
