src2/outputs/checkpoints/mlp_dl_ul_sc.pth (torch, 75258 bytes, 6 tensors)

net.0.weight f4 [128, 75]
00000000: dd2b 123d 9bc6 d33b 0be5 c6bc 3790 083e
00000010: 7693 f73d ab48 223d 3e95 0bbe b86c fa3d
00000020: 7823 75bd 8924 a6bd 6862 bd3b 0fcc 883d
00000030: c2b1 a03d 1fb6 5ebd ebf3 0b3d 5fe6 a6bd
00000040: fca7 a0bd 57e3 cdbd e5f3 043c bc71 aa3d
00000050: 258c f33d 77fe 9bbd 31d1 b33d 1081 983d
00000060: 43a3 c83c 39c8 17be 2a67 593c 95bb 4dbd
00000070: 559f 643d 70a9 57bc ea65 8b3c f596 c0bc
00000080: 912c dcbd e646 a3bd 6585 12be a333 29bd
00000090: 339e 43bd 8e27 f1bd d3e5 5e3c 3175 ac3c
000000a0: 9a49 b33d ceab dfbc 3672 95bc 9d33 9f3c
000000b0: 864a 083d e8e7 fabd b001 943d d016 eebd
000000c0: 188f 4c3d 9850 61bd 1f4f 063e 1596 a53c
000000d0: 9b30 f1bd 4e6d 5ebc 9950 ab3d d949 cf3c
000000e0: 192c 283d e72a 79bb d615 22be 52b9 84bc
000000f0: 8bf6 1dbe 4eeb 35bd 3768 07be 4516 e73d
00000100: 521c af3d 125b bdbd 2799 103d 38e6 8abd
00000110: a6b4 6538 1388 5b3d 41b4 e63d e842 73bc
00000120: ace7 103e abcb 6d3d 4d1c a33c e6bd f3bd
00000130: 8bea 21be 4fb2 2bbc 474e 41bd 145d 9cbb
00000140: cf99 9bbb 7336 acbd b4d2 b23c ea55 cc3c
00000150: 55d1 e43d 0eae a93d 0e8e 71bd 2f83 11bd
00000160: ac92 803d dbed 26bc 91de 8bbb 6b0a d73c
00000170: a121 c6bc 08f1 893d d6ef 063e 63aa 273c
00000180: 7940 fbbd d93d 833c 7d49 0dbd 9a3e c0bc
00000190: 22a9 debb 5dda 05bd 74e3 9fbd 36ff c73d
000001a0: b083 003d c45d 6a3d 83f6 87bd 2c85 0c3d
000001b0: c41d 283d 68ff 28bb e2bd ef3b e048 b53d
000001c0: 7e09 133c 471a 803d ad43 7c3d 4191 22be
000001d0: d29d 2ebc dd39 af3d 0a42 bcbd 2fa8 cfbd
000001e0: 03cc fe3a 3a9b 2a3e 5ddc 07be ee69 02be
000001f0: 7949 c93c f427 20bd f653 7ebc c980 d1bc
00000200: b619 aebc cd75 903d 4be4 643d 8270 253d
00000210: bcc4 e6bd 84cd 50bd 3a8c 1f3d f157 d8bd
00000220: 3370 e9bb 7950 9ebd c523 c13d 1de4 fabb
00000230: 66a4 7fbd d8ba fe3d 7354 be3d 7f31 acbd
00000240: 5620 5a3d 1e2c 01bd 879a 98bc 258f c2bd
00000250: a67e c9bd efc6 0b3d 30de 513d 7f26 513d
00000260: 096d fabc fb47 6ebd c268 ac3d cfeb bd3d
00000270: 019a 2fbd b1c5 563d c0cc cabd feee 8bbc
00000280: e234 273d 5fdd 96bd af98 8bbd a8de 03bd
00000290: 353a 063e 3205 e43b 0500 953d 9751 0f3d
000002a0: 4ffe c33c e5ad a1bd d7d7 063e ba32 7a3d
000002b0: 684a d83d 0007 b03b c49e cabb f748 bcbd
000002c0: a6d0 0fbe a2de 0ebd f664 84bd 2574 31bd
000002d0: b43d e4bd 4d43 e6bc a90a 23bd 7869 d9bd
000002e0: 0f1a 12be b52e 063c f9f4 7bbd 0494 863d
000002f0: 8418 8fbc 7cfd 653c 1896 113d 2f1e 72bb
00000300: c1a3 193e 57f5 573c cb2e a4bd 48e1 99bd
00000310: c9da 4cbd 0e7a 92bd fd3d 5abd 8e22 32bd
00000320: 8683 3ebd eb24 f33d 1431 abbd 306f 96bd
00000330: fa8c cf3d deb9 433d 088d 1bbc 7bc4 c6bc
00000340: 4a1b ffbd 8247 3cbd ea0b abbd 60b4 7f3d
00000350: e9d5 05be 5e4f 07ba f38f b8bd 2992 a13d
00000360: 91b0 dfbd af18 a03d 0b36 6dbc 232f e43d
00000370: d68f 313d 1df3 00bd 2e0e 1f3e 8ff7 9f3d
00000380: 9ef0 b1bd 7c8b 843d e057 18bd 576e bd3c
00000390: ea10 9dbc 00d2 dbbd 3fce fdbd 0c90 013a
000003a0: 7183 ca3d 99ac a4bd a34c 6a3d eb32 243d
000003b0: 3646 4e3c 30e7 0e3e fc1c b5bd 2a2a d33d
000003c0: 9823 68bd c68f ebbd 6e59 b2bd f487 43bd
000003d0: bcdc 363d d332 56bd edaf 4a3d ca6a 4dbd
000003e0: 1025 0e3e 6e47 f93d e6d2 ca3d 52ac ad3d
000003f0: e52d bbbb 0dec 143d 66e2 01be ce2d 97bd
0.035686363 0.0064628846 -0.024279138 0.13336264 0.12088673 0.039620083 -0.1363115 0.12227768
-0.05984828 -0.08112437 0.005779553 0.06679546 0.078464046 -0.054372903 0.034168165 -0.081494085
-0.078445405 -0.10053127 0.00811479 0.08322474 0.11891965 -0.07616895 0.087801345 0.07446492
0.024491912 -0.14822473 0.013269225 -0.05022772 0.055816013 -0.013162956 0.01701637 -0.023509482
-0.10750688 -0.07972507 -0.14308698 -0.04130901 -0.047758292 -0.117751226 0.013604599 0.021051975
0.08754273 -0.027303603 -0.018242937 0.01943379 0.033274196 -0.12251264 0.07226884 -0.11625445
0.049941152 -0.0550085 0.1311612 0.020213166 -0.11776849 -0.013575865 0.08364982 0.025303768
0.04105768 -0.0038019957 -0.15828642 -0.016201649 -0.1542608 -0.044413857 -0.13223349 0.112835445
0.085503235 -0.09245886 0.035302307 -0.06782192 5.4766097e-05 0.053596567 0.112648495 -0.014847495
0.14150876 0.05805556 0.019910956 -0.11901455 -0.15812127 -0.010479524 -0.04719379 -0.004771838
-0.00474856 -0.08408823 0.021828987 0.02494331 0.111727394 0.082851514 -0.058973365 -0.035525497
0.062779754 -0.010188545 -0.0042684753 0.026250085 -0.024185957 0.06735426 0.13177428 0.010233494
-0.122681566 0.016020702 -0.034493912 -0.02346735 -0.0067950645 -0.03267895 -0.07807055 0.097654745
0.031375587 0.057218328 -0.06638815 0.03430669 0.04104401 -0.0025787 0.007316337 0.088517904
0.008974431 0.06255012 0.06158798 -0.15875722 -0.0106577445 0.085559584 -0.091922835 -0.101395
0.0019439462 0.16660777 -0.13267656 -0.12735721 0.024571167 -0.039100602 -0.015522948 -0.025574105
-0.021252494 0.07053719 0.05588178 0.0403905 -0.11267993 -0.050977245 0.03895209 -0.105636485
-0.007123971 -0.07730193 0.094306506 -0.0076565878 -0.062412642 0.12437981 0.09293451 -0.08407878
0.053253494 -0.031536214 -0.018628372 -0.09499959 -0.098386094 0.034125265 0.051237285 0.051062103
-0.03056957 -0.058174115 0.084184185 0.092734925 -0.04287148 0.052434627 -0.09902334 -0.017081734
0.040821917 -0.07366442 -0.068162315 -0.032194763 0.13108142 0.006958627 0.07275394 0.03498992
0.023924975 -0.07894496 0.13168274 0.061083533 0.10561067 0.005371928 -0.006183477 -0.091936044
-0.14044437 -0.034880288 -0.06464569 -0.043323655 -0.111445814 -0.028108263 -0.03980509 -0.1061582
-0.14267753 0.008189847 -0.06151292 0.065712005 -0.017467745 0.014037486 0.03554353 -0.003694426
0.15003873 0.013181052 -0.080167376 -0.07513672 -0.050013337 -0.07152186 -0.053281773 -0.043489985
-0.04651215 0.11872276 -0.0835897 -0.07345426 0.10134311 0.04778468 -0.009494074 -0.024263611
-0.12456377 -0.045966633 -0.08351882 0.06242788 -0.13069881 -0.0005161668 -0.09011831 0.07889206
-0.10922349 0.07817208 -0.014478217 0.11141803 0.043350063 -0.03148185 0.15532753 0.0781089
-0.08688472 0.06471917 -0.03719318 0.023123903 -0.019173104 -0.10733414 -0.12392854 0.0004942424
0.09888352 -0.08040733 0.057201993 0.04008762 0.012589982 0.13955379 -0.08843419 0.103107765
-0.05667457 -0.11502032 -0.087084636 -0.047737077 0.044644102 -0.052294564 0.049484182 -0.05015067
0.13881326 0.12171827 0.09903507 0.08480133 -0.005712258 0.036357928 -0.1268402 -0.073817834

net.0.bias f4 [128]
00000000: 39d4 393c 1a44 ff3c 18f7 933d cf36 71bb
00000010: bab3 063e 69cd bbbd 5cec 42be 98b4 15be
00000020: 4427 113d d6d1 d9bb b0f4 383d 43e8 eabd
00000030: 75ca 343d a228 793d cad0 e83d 50db 6cbd
00000040: 0322 363d 6bd9 d3bc 52fa bc3d fbd4 42bd
00000050: 6837 86bd bc97 2b3d a5e7 df3d 4a14 813d
00000060: 6bec a5bd 598e a43d ff4c b9bd 6b22 ffbd
00000070: 993f 93bd af44 b5bd e293 afb8 88eb bfbc
00000080: b8e6 0a3d 800d 19be d797 493d a6b6 29bd
00000090: 19e3 3ebe 6fb5 52bd 678c 3ebd 6ea4 06bd
000000a0: e0c5 dd3d 6fda d6bc 9521 c83d 28c2 883c
000000b0: f3d1 213e 8776 f1bc 2502 213d ae0a 083d
000000c0: 9f1a 6bbc 8038 29bd 8b27 043e 3457 dfbc
000000d0: febc 28bd 09fe a7bc c6e7 22be c959 59bd
000000e0: 69d2 64bd deb8 c93d d817 95bd 976f f83d
000000f0: 8d45 f0bd c061 933d f146 793c 901d c53d
00000100: 2a2a a73d 89eb e63d 98cf 363a b6a2 283d
00000110: a19d ec3c dc96 88bd 4f44 a7bd 8eed aebd
00000120: 742e c03c 8eb1 d13d 0c68 b3bd 9255 b5bc
00000130: 4cbe be3c 1354 713d a089 f0bd 08b9 0f3e
00000140: e9e5 87bd 363c cbbd 9c76 32bd fe41 233c
00000150: de75 aebc 4080 833d 0b5b f43d d2e8 d23d
00000160: d841 05bd a43d 5f3d 5e18 2fbe 45a1 bc3d
00000170: eb18 ab3d c38f e5bd 404d 073e 0455 0bbd
00000180: 86a4 16be 5090 043e 4593 023e f203 6abd
00000190: f916 70bc 47e9 b13b fcd8 36be 2f34 063e
000001a0: c183 6a3c b571 11bc b273 893c 00c5 153e
000001b0: a4f3 6ebd 533a 9bbd 5887 613d 5269 e03d
000001c0: 588b abbd bad8 273c 32a2 11be 1a24 103e
000001d0: f77a acbd e8d9 b0bd b243 73bd 8bee 23bc
000001e0: 19d8 93bc ec8b 113b 071b 8e3c 3344 8e3c
000001f0: 491e 0e3e 0687 1cbd 0ba3 08bd 6239 d83d
0.011342102 0.031160403 0.07224864 -0.003680635 0.13154498 -0.09170038 -0.19035476 -0.14619672
0.035437837 -0.006647329 0.045155227 -0.11470082 0.04413839 0.060829766 0.11367948 -0.05782634
0.04446603 -0.025860509 0.09227432 -0.047566395 -0.06553537 0.041892752 0.109328546 0.06302698
-0.08101734 0.08034963 -0.09047889 -0.124577366 -0.07189865 -0.08850991 -8.3721956e-05 -0.02342774
0.033911437 -0.14946556 0.04921707 -0.041433953 -0.18641318 -0.05144256 -0.046520617 -0.032871656
0.10828757 -0.026227204 0.0977203 0.016694143 0.15802746 -0.029475464 0.039308686 0.03321331
-0.014349609 -0.04131365 0.1290571 -0.027263261 -0.041195862 -0.020506876 -0.15908727 -0.05306414
-0.055864725 0.09849714 -0.072799385 0.12130659 -0.11732016 0.07196379 0.015214668 0.09624779
0.08162339 0.112753935 0.0006973683 0.0411708 0.028883757 -0.06669399 -0.08167326 -0.08541404
0.02345965 0.10238944 -0.0876008 -0.02213553 0.0232841 0.05891807 -0.11745 0.14035428
-0.06635649 -0.09923594 -0.043570146 0.009964464 -0.021296438 0.06420946 0.119314276 0.10298313
-0.032533497 0.054502144 -0.17099139 0.09210447 0.08354362 -0.11209061 0.13213062 -0.034016624
-0.14711198 0.12945676 0.12751491 -0.05713267 -0.014653915 0.00542942 -0.1785621 0.13105844
0.014313639 -0.0088772075 0.0167788 0.14625931 -0.058337823 -0.07579484 0.055060714 0.10957588
-0.08376187 0.010244543 -0.14222029 0.14076272 -0.08421891 -0.08635312 -0.05939073 -0.010005604
-0.01804738 0.0022208644 0.017346872 0.017366504 0.1387874 -0.038214706 -0.033358615 0.1055782

net.2.weight f4 [64, 128]
00000000: 9cc2 6d3d e767 353c b32a 71bd 5629 bfbb
00000010: 282d 8a3d b04a f7bd 26d5 7b3d 6fcb e83c
00000020: e318 1e3d bca9 8f3d e383 61bd 3f8c 323d
00000030: ef73 a7bd 0e89 f43c d88c b43d 6bac 93bd
00000040: da95 22bc 86c6 2abd 268b 79bd 38c6 813c
00000050: 85b2 4ebe 0a0b 20bc 74c7 af3d 23af 163d
00000060: f3e8 a5bc c7d8 4ebc 5b5c c43d 0b2c 9b3d
00000070: d4c1 903c 3c25 cfbd 639a 0bbe 6e8e be3d
00000080: 9007 d73c 9ce2 90bd a960 fa3d fbcd 3f3d
00000090: 308e 95bd 6d16 d2bb 5e5e 013e 6aa1 ad3d
000000a0: 6381 80bd 7d83 b7bd a5c5 6d3d 2d7d 94bd
000000b0: b229 e53c d243 343d 26cf 1d3b f4c5 ae3c
000000c0: 569b 45bb ea82 1dbd 26fb 58bc d3bc 01bd
000000d0: f771 95bd c4d4 a3bd d04a 4ebc 07b7 a63d
000000e0: 3c01 cfbd d752 38bc d159 723c 7931 283b
000000f0: 9074 233d 5605 353d 815e eabd d08e 37bd
00000100: ee64 fc3b 9e67 37bd f699 84bc 0fd3 773d
00000110: 1c78 21bd 6723 c2bb 404f 7bbc 5449 5fbd
00000120: 5867 95bc bbdd f53d b0bb 9b3d 5a9c c63c
00000130: 58d0 6cbd bbbc 00be 56da 9abc 04c0 a03d
00000140: 6ecd 773d cc9e 6bbc c0a7 423c 0981 023c
00000150: 9771 023d 9aea 063b 2c02 80bd dbfd 8c3d
00000160: e1b5 b4bd b93d 1e3d 5a75 f6bc 8ad6 e23c
00000170: 9cf1 103e 37e6 be3d ed30 bcbd 0ee8 e93d
00000180: a6f8 a53c 753f bf3d 7663 ab3d cc2b c43c
00000190: c343 91bd f259 973d 59fb 913b 7498 47bd
000001a0: cb8f d03d aa3e 8abd 9673 5c3d 99a2 9ebd
000001b0: 0c05 ffbc 6c35 3abd 1158 a73d bc3c 6e3c
000001c0: 2f1f 30be f9f8 7a3c 38a4 4fbe 9550 93bd
000001d0: 2987 263b 1342 63bd b24b aa3d 6bfc 63bd
000001e0: 7f05 02bd fb45 9c3c 31ac 803d 97df e5bd
000001f0: 8d0e 9f3d c7e0 093c 7052 4ebd aab0 e0bd
00000200: 349a 1b3c e511 2dbd 1eb0 13bd d890 853d
00000210: 1b24 3d3d be9c d43c 8a19 15bd 4885 a43d
00000220: 345b 913d 6042 953d 722b 63bd 8805 acbd
00000230: b152 bbbd 9aad 9dbd 93a4 3a3d cbc3 3b3d
00000240: a27c 89bd 6a8b 13bd 4b38 f0bc 3535 333c
00000250: e9b7 68bd 45b1 81bc 3ef0 ae3c 0574 c9bb
00000260: 0b90 13bd 7404 92bd 72bc 0dbd 20f8 073d
00000270: 5b25 0c3d 35d5 2fbc 47bb 093d f477 2b3d
00000280: d83f 0ebd c9d3 013d d47a 23bd 92f8 3ebd
00000290: 48b7 00bd b037 453a ebd4 bbbd ce60 803d
000002a0: 1455 79bd 217e bbbd adf9 d7bc 340b 2fbd
000002b0: 6490 3a3d a7fb 7bbd 7ac4 8d3d 327a b4bd
000002c0: c188 7d3d d2f6 cd3c 4406 b9ba c82e f13c
000002d0: 84c5 82bd 6a68 143d b445 cb3c da41 9d3c
000002e0: 0be0 8d3c 7349 bdbb 1165 5fbc d827 34bd
000002f0: 66a7 33bd e286 91bd 4484 9b3d 309f d7bd
00000300: 397e 803d 1eb6 2ebd e14d 593d 1699 763d
00000310: 1d11 12bd 705f 86bc 79ac 2fbc b25e 913d
00000320: 8b5b e4bc 919f e23b eb27 333d 1925 b8bd
00000330: 347e 63bd 9e48 5e3c afb8 99bd 505f 9cbd
00000340: abf6 ac3d 9346 99bc 7903 a23c 0c30 8d3d
00000350: 9dd6 13bd 00c7 3c3c 2dd3 c4bc 8f9a 3dbd
00000360: 5b69 a23d 75e5 ba3c 00d0 923c 00bb 85bd
00000370: d801 3abd 81d1 88bc 7285 8dbd 81c8 d5bc
00000380: d59d 2b3c 494e 673c b446 97bd 160e 3a3c
00000390: 0c38 623d 2c79 b5bd c647 b73c 4e38 abbd
000003a0: 1eab 80bd 1e46 0d3d d4e3 7c3d 21a1 33bd
000003b0: 20a8 443d 2f07 64bb 8816 a03d cdce 283d
000003c0: abaa 26bc d724 ecbd 311b c9bd 3312 2e3d
000003d0: 9e19 573c d901 c8bd fe55 303d f08b 8fbd
000003e0: 65e3 8ebd 5454 52bd ae74 01bd 5c83 65bd
000003f0: 4053 23bd a29a e93c be18 3d3c 189f c8bd
0.058046922 0.0110721355 -0.05887861 -0.005833785 0.06746894 -0.120747924 0.06148257 0.028417317
0.038597953 0.07014796 -0.055057418 0.04359078 -0.081764095 0.029850509 0.08815926 -0.072106205
-0.009923423 -0.041693233 -0.060923718 0.015841588 -0.20185287 -0.009768257 0.085829645 0.036788117
-0.02025268 -0.012624926 0.09587928 0.0757676 0.01767055 -0.10114524 -0.13633113 0.0930451
0.026248723 -0.07074472 0.12225468 0.046827298 -0.07302511 -0.006411365 0.12633654 0.08478053
-0.062746786 -0.08960626 0.058049817 -0.07250438 0.027973983 0.04400999 0.002407977 0.021334626
-0.0030152402 -0.038454928 -0.013243472 -0.031674217 -0.07297128 -0.07999566 -0.012591079 0.081403784
-0.10107657 -0.011250219 0.014791922 0.0025664254 0.039906085 0.044194542 -0.114438064 -0.04481393
0.0077024614 -0.04477655 -0.016186696 0.060504016 -0.039421186 -0.0059246304 -0.015338719 -0.05451329
-0.018237755 0.12005182 0.07604158 0.024244476 -0.05781588 -0.12571995 -0.018902939 0.07849124
0.060498647 -0.014381122 0.011880815 0.007965335 0.03184661 0.002058661 -0.06250414 0.068843566
-0.08823753 0.038633082 -0.030085254 0.02769019 0.14154667 0.09321254 -0.09189019 0.11421214
0.020260166 0.09338275 0.0836858 0.023946665 -0.07093003 0.073902026 0.004455012 -0.048729375
0.10183676 -0.067502335 0.05382117 -0.07745857 -0.031130336 -0.045461103 0.08171094 0.014540847
-0.17199396 0.015318149 -0.20277488 -0.07193104 0.0025410152 -0.055482935 0.08315219 -0.055660646
-0.031743523 0.019076338 0.06282843 -0.11224287 0.07766447 0.0084154075 -0.050371587 -0.10971196
0.009497214 -0.042253394 -0.03605663 0.065217674 0.04617701 0.025953647 -0.03640131 0.08033234
0.07097474 0.07288051 -0.055461355 -0.083994925 -0.091466315 -0.076991275 0.045567106 0.04584102
-0.06713225 -0.036021627 -0.029323718 0.0109379785 -0.056816015 -0.015831599 0.02135479 -0.006147864
-0.036026042 -0.071297556 -0.034603544 0.033195615 0.034215312 -0.010731985 0.033625867 0.041862443
-0.034728855 0.031696115 -0.03991206 -0.046623774 -0.03142479 0.00075232517 -0.0917147 0.06268464
-0.060872152 -0.091549166 -0.026364172 -0.042735294 0.045547858 -0.06151929 0.069222406 -0.088123694
0.061897997 0.025142107 -0.0014116247 0.029441252 -0.06385329 0.03623239 0.02481351 0.01919644
0.017318746 -0.005776578 -0.013634936 -0.04398331 -0.043860815 -0.07105805 0.07593587 -0.105284095
0.06274075 -0.04265415 0.053052787 0.060204588 -0.03566085 -0.01640293 -0.010722273 0.0709814
-0.027875682 0.0069159945 0.04373924 -0.08991451 -0.05554028 0.013567118 -0.07505929 -0.07635367
0.08445486 -0.01871041 0.019777047 0.0689393 -0.036093343 0.011522055 -0.024026478 -0.046289977
0.07930251 0.022814492 0.017921448 -0.06529808 -0.045411915 -0.016701462 -0.06910218 -0.026096584
0.010474642 0.014117786 -0.073865324 0.011355897 0.05522923 -0.08861002 0.022373091 -0.08360349
-0.06282638 0.034490697 0.06174071 -0.043854836 0.0480119 -0.003479432 0.078167975 0.041212846
-0.010172526 -0.11530464 -0.098196395 0.042497825 0.013128666 -0.097659774 0.04305076 -0.07009113
-0.06976966 -0.051349953 -0.031605415 -0.056033477 -0.039874315 0.028516117 0.0115415435 -0.0979597

net.2.bias f4 [64]
00000000: b5d0 6c3d 7575 6d3b 38c9 ac3b 3dc9 f9bc
00000010: eca4 043d c189 c6bc c33e b13c 52a9 debd
00000020: 420b d2bd 2316 393d 332c 093d 5831 b0bd
00000030: 665a 913d 3dd8 debc 9e91 4c3d ed0d 183d
00000040: b941 41bc c371 f23d 389e 86bd a1f2 c63d
00000050: 948f 7a3d 1446 26bd 0593 573c 5099 a2bd
00000060: 7269 b7bd 0b48 383d f03b d6bc e8ac c83d
00000070: 1d46 29bc f2bc b03d 8201 2ebb 8f59 663d
00000080: 8e6b 763d c813 a0bd 140b 7f3d 17cb c43d
00000090: 37c1 e5bc 3f89 0cbd 37a9 6c3d 794d 4f3d
000000a0: c7fe 07bc aeca 37bb eeea 503d 5839 6cbd
000000b0: d9fc 88bd 9658 b13c 9caa 42bd 6663 2ab9
000000c0: 80f6 cabc 3f90 b1bd 1960 fcbc 1898 6d3d
000000d0: b0e0 163d 70f0 c53d 687d 8b3d 0976 3a3c
000000e0: 84b4 ecbc 5802 453d 4ba8 af3c 5d52 bfbc
000000f0: 3561 633d 04bc cdbc 1b83 52bd 003d cbba
0.057816226 0.003623334 0.0052730106 -0.030491466 0.032383844 -0.024235608 0.021636372 -0.10872139
-0.102560535 0.045187127 0.033489417 -0.086031616 0.0709732 -0.02720272 0.04994356 0.037122656
-0.011795455 0.118381046 -0.065731466 0.097142465 0.061172083 -0.040594175 0.013157611 -0.07939398
-0.08955659 0.04499058 -0.026151627 0.09798604 -0.010331658 0.086297885 -0.0026551192 0.056237753
0.060161166 -0.07816273 0.062266424 0.09609049 -0.028046234 -0.034310576 0.057778563 0.050610993
-0.00830049 -0.002804439 0.051005296 -0.057671875 -0.06688852 0.021648686 -0.047525987 -0.00016249492
-0.024775743 -0.08670091 -0.030807542 0.058006376 0.036835372 0.096650004 0.06811029 0.011380681
-0.02889467 0.04809794 0.021442553 -0.023354704 0.055512626 -0.025114067 -0.051394563 -0.001550585

coord_head.weight f4 [2, 64]
00000000: e26a f0bd 7991 87bd da75 57bd 2a08 8fbd
00000010: 91c7 003d c5ea 6d3c 550a 093c 2e23 b4bd
00000020: 59b6 13bd b19d 9bbd 013f e53d bbda 46bc
00000030: d09d 0e3d d81f 9b3c 143d e13c 082d 983d
00000040: 36ce bbbc b1e7 8ebd 4eb4 cbbc 4ff8 af3d
00000050: be07 5fbc 1c2f aabd 2724 433d ac17 a73c
00000060: 291f 6fbd 57e1 b2bc 75eb b7bd 25fe cd3c
00000070: d25e f13d d105 c73d 1423 e8bd bac5 1c3d
00000080: 7144 743a 4549 2fbd af67 c0bd 0385 2a3c
00000090: 2397 7cbc b83b 9d3d df4c bfbd cc15 afbd
000000a0: ebb3 1e3d 6bd2 023d fd83 e93c ca45 bdbd
000000b0: e179 43bd 020d 103e 9120 ea3c 0499 40bd
000000c0: fe2a 8ebd 951a 06be 6322 e7bc eabf a13d
000000d0: fb1c a3bd 9fe8 423d 55d9 94bd 602b fa3d
000000e0: 34b0 65bd a12e 65bd 09d9 9f3d 9c8f c73d
000000f0: aba8 c63d b9c0 01bc b384 d3bd 5abc 63bc
00000100: 2fc9 b63d 4d0d 4abd f460 9cbd 4d28 81bd
00000110: 88da f8bd 5ef6 b63d 5ebd 243d 0346 82bc
00000120: 05e5 d8bd 4b4d 403c 76a7 f83d db55 98bb
00000130: b7a7 fa3c 851e 4b3d 383e db3d 0e0c 0d3e
00000140: fac7 e3bc a30b 033e 95ea 4abd 6fef c9bc
00000150: 4635 803d 8edf c33d 1927 85bd 7da8 18be
00000160: e2b7 18bd 245d 94bd b6f7 40bd 7d0e 913d
00000170: b299 24bd 210f 113d 09f8 213e d460 f83c
00000180: 2550 e8bc 7f9d dcbd c4a1 55bd 7fcb 543c
00000190: 1bd0 be3c 9bea 963d 677a 503d c960 a83d
000001a0: 5113 b8bd 3309 6a3d 33e7 0dbd 6221 43bd
000001b0: 1133 6bbc f5cb 423d 847a f8bd 00f1 023d
000001c0: 2ee5 d23c 342e dfbd 4db4 9abd a335 06bd
000001d0: 9f28 81bc 2f71 b43d 3397 29bd 241b 66bd
000001e0: 7fc6 dd3d 9a99 5e3d c5bb 183d ec4d e1bd
000001f0: e31e 023e 1372 b9bc 0acd e0bd 209c c93d
-0.11739136 -0.066195436 -0.052602626 -0.06983979 0.03144032 0.014521305 0.00836428 -0.087957725
-0.036062572 -0.075984366 0.11193658 -0.01213711 0.03481847 0.018936083 0.027494945 0.07430464
-0.022925477 -0.069777854 -0.02486625 0.08592283 -0.013612686 -0.08309767 0.0476419 0.02039703
-0.058379326 -0.021835966 -0.08980457 0.0251456 0.11785664 0.09717906 -0.113348156 0.038274504
0.000931806 -0.042794485 -0.09394776 0.010407689 -0.015416893 0.07677406 -0.09340834 -0.08549079
0.038745802 0.03193895 0.02850532 -0.09241827 -0.047723655 0.14067462 0.028579982 -0.047020927
-0.06941794 -0.13096078 -0.028214639 0.07897933 -0.07964512 0.047585126 -0.07268015 0.122153044
-0.056076244 -0.055952672 0.07805068 0.09744188 0.097001396 -0.007919484 -0.10328045 -0.013899887
0.089250915 -0.04932909 -0.0763568 -0.06306515 -0.121510565 0.089337096 0.040219657 -0.015902525
-0.10590557 0.011737178 0.12141316 -0.0046489066 0.03059755 0.049589653 0.10705227 0.1377413
-0.027805317 0.12797408 -0.04954012 -0.024650304 0.06260161 0.09564124 -0.06501598 -0.14908023
-0.03728474 -0.07244328 -0.047111236 0.070828415 -0.040185638 0.03541482 0.15817274 0.030319609
-0.028358528 -0.107722275 -0.052156225 0.01298797 0.023292592 0.07368966 0.050897982 0.08221585
-0.08988059 0.05713768 -0.034644317 -0.04763926 -0.014355437 0.04755779 -0.12132743 0.031968117
0.025744047 -0.108974844 -0.07553921 -0.032765996 -0.01576644 0.088106506 -0.04140396 -0.056178227
0.10828876 0.054345705 0.037288446 -0.110011905 0.12707095 -0.022637403 -0.10976608 0.098442316

coord_head.bias f4 [2]
00000000: 2499 99bc 94fb 423d
-0.018749781 0.047603205
