outputs/checkpoints_v2/mlp_real_gps_scaled_v2_dl.pth (torch, 55420 bytes, 6 tensors)

net.0.weight f4 [128, 36]
000000 7e a0 6c 3b 90 58 2d be 08 0e 35 3d 55 49 ae bd
       0.0036106403 -0.16928315 0.044202834 -0.08510081
000010 b0 60 ef 3d 87 af e2 3d a6 e4 0e bd 76 1e c9 bc
       0.116883636 0.110686354 -0.034886025 -0.024550658
000020 da 09 02 be 7f 90 85 3d 0c 1c 8a bd d3 e0 1f bc
       -0.1269907 0.06521701 -0.06743631 -0.009758192
000030 dd f1 36 bd d7 9e 3f 3e f0 73 55 bd 3a 22 86 3d
       -0.044664253 0.18712936 -0.05211252 0.06549497
000040 d9 c0 3f 3b 60 fa 88 3d cd a6 cd bd bc fc 74 bd
       0.0029259233 0.0668838 -0.1004158 -0.05981134
000050 65 21 34 bd 51 46 6e 3e 2e 60 8f be 76 1a 03 be
       -0.04397716 0.23269011 -0.28003067 -0.12803063
000060 a4 b9 54 3e 9d 36 af 3d f6 25 41 3e 9d 26 4b bb
       0.20773941 0.085553385 0.18862137 -0.0030998357
000070 dc 4a e8 3c 08 cf b1 3d fc 8b 00 bd 7f cb b8 3d
       0.028356008 0.08682066 -0.0313835 0.09023189
000080 b4 17 2d bc ed 89 1f be ab 8a f1 bc 3c 5f c9 bc
       -0.010564733 -0.15579958 -0.029485067 -0.024581544
000090 41 4a 49 bd 74 af 1e be 39 83 55 3d fc 74 e4 3d
       -0.04914308 -0.15496618 0.052127097 0.111551255
0000a0 6f af 34 3d ec a3 f2 bc e7 ef 29 bd d8 d1 a6 3d
       0.04411262 -0.02961918 -0.041488554 0.08145493
0000b0 75 90 9f 3d 81 4a 9e 3d 6f 8c 07 3e ec 83 4e be
       0.07791225 0.07729054 0.13237165 -0.20167512
0000c0 4c 42 a8 3d 8b 4a a2 3d 47 98 4e bd 5e ed 86 3d
       0.0821577 0.07924374 -0.05043819 0.06588243
0000d0 a8 9c 0d 3e 45 3e c8 bd 6e ff 81 be 3e 83 15 3e
       0.13829291 -0.09777502 -0.2539019 0.14600846
0000e0 3a 2b 49 bd 62 32 67 3c fa 5b 2a 3e 13 31 73 3e
       -0.04911349 0.014111133 0.16636649 0.23749189
0000f0 6c 0a 3f 3e a4 c7 d7 bd b0 05 4e 3e 5c 84 21 3e
       0.1865632 -0.10536125 0.20119357 0.15773147
000100 fa 79 49 be e8 26 3c be b5 cf cb 3d 91 2c 01 bd
       -0.19675437 -0.18374217 0.09951726 -0.031536642
000110 d5 a8 f9 3c 93 82 05 3d 94 2f 2f 39 2b 44 a9 bd
       0.030476013 0.03259523 0.00016707025 -0.08264955
000120 28 c5 39 3e b0 b0 cb 3d d9 c5 23 bd c0 03 bd 3d
       0.18141615 0.0994581 -0.039983604 0.09229231
000130 c7 da f5 bd 07 45 c9 bd e7 3f 2f be 0f bd 2d be
       -0.12004619 -0.09827619 -0.1711422 -0.16966651
000140 e4 74 16 3d f3 44 fd bd dd 39 0f be b5 b6 41 3d
       0.03673257 -0.12366667 -0.13986917 0.047293384
000150 59 86 a0 bc 14 82 91 3c 4c c2 f2 3d 04 b9 22 3d
       -0.019595312 0.017762221 0.118534654 0.039727226
000160 69 93 a3 3c e7 5c 0c 3b 94 4c d3 3b 9a 5d 24 be
       0.019967752 0.0021417679 0.006448338 -0.16051331
000170 f9 0c 32 3d 87 80 be 3d 1e 98 2d be 23 dc a1 3d
       0.043469403 0.093018584 -0.1695256 0.07903316
000180 8a a5 18 be af 1e 7a bc ee 4d 2c be 7a 53 f2 bd
       -0.14906898 -0.015266105 -0.16826603 -0.11832328
000190 f1 4c 91 bd 09 a8 d4 bc 91 7f 1b be 1f 3f e4 3c
       -0.070947535 -0.025959032 -0.15185381 0.02786213
0001a0 86 0e bc 3c 2c 83 80 3b 3b 1e 3d 3d b2 9e 38 bd
       0.022956144 0.003921887 0.04617141 -0.04507322
0001b0 60 20 07 3e 8b 28 c2 3d bc 73 0d 3e ef ac df bc
       0.13195944 0.09480389 0.1381368 -0.02730414
0001c0 d7 9c c4 3c 01 38 9c bc a7 ed d7 3d 50 c9 fc 3b
       0.024000568 -0.019069673 0.105433755 0.007714428
0001d0 52 22 b3 3b 17 58 60 bc 7a 41 86 3d 12 25 b3 bd
       0.005466738 -0.013692877 0.065554574 -0.08747305
0001e0 be bc 99 3d a6 a7 f2 bd 58 ea 37 bd 6b b2 14 3d
       0.07506703 -0.11848383 -0.044901222 0.036302965
0001f0 76 ee 30 3c f0 cc 7b 3d 5a a8 80 3d 5e b4 13 3e
       0.010799041 0.06147474 0.062821105 0.14424273
000200 14 62 9d bd 2c 3c 1c 3e 62 d1 0a be 28 92 19 be
       -0.076847225 0.15257329 -0.13556436 -0.1499716
000210 0b 3a c3 bc 57 35 db bd 80 11 9f bd 6a 42 32 3d
       -0.023831388 -0.10703533 -0.0776701 0.04352037
000220 7e 91 26 be 3c d5 a2 3d e0 1f 4a 3e 8a a5 99 3c
       -0.16266438 0.079508275 0.19738722 0.018755693
000230 06 81 2e 3d 3a 29 87 bd 0b 5c 45 be b2 67 1b be
       0.042603515 -0.0659966 -0.19273393 -0.15176275
000240 47 5a 90 bd 0c c9 bb 3e 18 4d 1b be 5a 20 4a 3e
       -0.07048469 0.36676824 -0.15166128 0.19738904
000250 5b 48 00 3e b8 bb 8d bc d0 c7 5c 3d 55 2d 98 3d
       0.12527601 -0.017301425 0.053901494 0.074305214
000260 49 ff 06 3e 57 62 34 3e 9d e2 77 bd 3d bd 11 3e
       0.13183321 0.17615639 -0.06051885 0.14232345
000270 d9 a2 f6 bd 98 ad 92 3d 6d a4 c4 bd 1d 71 be 3d
       -0.120427795 0.07162017 -0.09601674 0.092989184
000280 d0 d9 9f bd f6 7d f0 bd 87 b1 03 3e 6f ce 7e 3e
       -0.07805216 -0.11742775 0.1286069 0.24883436
000290 59 8b b2 bd b0 33 b2 bd 52 28 eb bd 2c 8a b2 3d
       -0.08717985 -0.08701265 -0.114823 0.087177604
0002a0 c6 51 15 be 20 05 58 bd 77 b4 dd 3d d2 9f 95 3c
       -0.14581975 -0.052739263 0.108254366 0.018264685
0002b0 40 d6 df bd 12 5c b3 bb 1c 71 5a bd d1 8b 71 be
       -0.10929537 -0.005473622 -0.053330526 -0.23588492
0002c0 14 02 18 3d 96 14 cd 3d 6f 6f 3f be 91 93 54 3d
       0.037111357 0.10013692 -0.18694852 0.051898543
0002d0 f2 fb a5 3c 08 e5 e1 bc 20 1a aa bd eb 1e 18 be
       0.020261738 -0.02757503 -0.08305764 -0.14855544
0002e0 e6 17 7d 3d c8 16 b2 3d 32 81 aa 3d aa 97 24 3d
       0.06179037 0.086957514 0.08325423 0.0401837
0002f0 2e 13 30 3d 6f 48 a4 3c 22 0a 0f be 19 ce 0f 3b
       0.04298704 0.02005407 -0.13968709 0.0021942912
000300 d9 f1 fa bd e0 fd c3 bc eb 58 e5 bd 36 69 b5 bd
       -0.1225316 -0.023924768 -0.111986004 -0.08857958
000310 3c 95 c8 bb ef 5f d8 3c d3 d0 39 3e 10 00 28 be
       -0.0061213057 0.026412932 0.18146066 -0.16406274
000320 0f 74 0d 3e ac d3 a1 3a bb 60 0b bd 5e e2 11 be
       0.13813804 0.0012346408 -0.034027796 -0.14246508
000330 48 15 ec bd fc 28 b9 bd bb 6f d6 bd 9a 51 da bd
       -0.115274966 -0.0904102 -0.1047053 -0.106600955
000340 1f 74 ce bd 32 2e 0f 3e 87 bd db bd 51 1f 56 bd
       -0.10080742 0.13982466 -0.10729509 -0.05227596
000350 8a 30 3b bd b8 c6 d2 bd 30 0e 18 3e b2 71 0b 3d
       -0.045700587 -0.10291809 0.14849162 0.034043975
000360 1d bf ce bd 2f 2a e0 3c d8 44 28 be 39 cd 22 3e
       -0.10095046 0.027363865 -0.16432512 0.15898599
000370 62 36 3b 3e 1b cc 24 3e 18 19 87 3d ac 47 97 3d
       0.18282464 0.16093485 0.06596583 0.07386717
000380 7e 18 4d be 22 75 35 be 1b 1e 89 3c 96 5c 4b bd
       -0.20028874 -0.17720464 0.016737988 -0.049648844
000390 df 2f b8 be c0 14 ef bd 89 35 06 be f6 2a d8 bd
       -0.35974023 -0.116738796 -0.1310636 -0.10555069
0003a0 4c 73 c3 bd 38 45 a4 3d 62 1a 3d 3d b8 c1 1e 3d
       -0.095434755 0.08021015 0.04616774 0.038758963
0003b0 be c2 eb 3d 29 f1 22 3e 14 34 e1 bd 52 ff 9f 3b
       0.115117535 0.15912308 -0.10996261 0.0048827315
0003c0 c3 78 a8 3d de 84 04 3e e1 dc f0 3d 30 77 8d 3d
       0.082261585 0.1294131 0.11760879 0.06907499
0003d0 cf d3 14 3e aa cc 1b 3e 6a 8c 33 be 32 4b 3c 3c
       0.14533924 0.15214792 -0.17534032 0.011492537
0003e0 9b a2 dc 3d 9a 86 34 be 37 97 29 bd fe 4e b0 3c
       0.10773202 -0.17629471 -0.041403975 0.021522041
0003f0 4c 25 bb bc 64 fe b6 be 0d 09 99 3c 34 15 97 3d
       -0.022844933 -0.3574096 0.018681074 0.07377091

net.0.bias f4 [128]
000000 95 12 de 3d 08 77 ee bd 98 62 b2 bc 3b 8e 05 3e
       0.10843388 -0.11643797 -0.021775529 0.13042538
000010 6d 65 54 be 04 2f 7a be 1b c7 9b be 06 a9 16 be
       -0.20741816 -0.24431998 -0.30425343 -0.14712915
000020 fc f6 36 3c 23 78 db bd 38 e5 3a be e5 7d b5 bd
       0.011167284 -0.10716274 -0.18251503 -0.08861903
000030 13 55 ff 3b 0f af 73 3d bc ea 2d be 40 ae 36 3d
       0.007792124 0.05949312 -0.16984075 0.04459977
000040 6c c0 17 3d f2 7f f0 bd 53 7b 73 bd 43 57 2f bd
       0.037048742 -0.11743154 -0.059443783 -0.04280783
000050 6c d0 04 be f2 78 2f 3b 43 80 4b 3d e9 86 03 be
       -0.12970132 0.002677497 0.049682867 -0.12844433
000060 d7 ea 74 be 88 2d d1 3c 13 a3 4d bd c2 0e 6d 3e
       -0.2391771 0.025534406 -0.050204348 0.23150161
000070 54 79 1d 3d aa 41 fb ba a5 b3 f8 bd 4a 15 80 3c
       0.038445786 -0.001916935 -0.121436395 0.015635151
000080 dd 27 f4 3c fc c0 bc bd b7 d8 c9 bd e7 84 b9 bd
       0.029804165 -0.09216496 -0.09855788 -0.09058552
000090 57 9f ed bd e1 4b 91 3d 22 47 c6 3d 4e 01 33 be
       -0.11602657 0.07094551 0.09681536 -0.17480966
0000a0 9c e7 c3 bd 3a b5 9e bd dd fd a1 3d a2 0a 82 be
       -0.0956566 -0.0774941 0.07909749 -0.25398737
0000b0 74 b6 a5 3d 2a 48 bf bd 14 a5 02 3c 61 b2 05 be
       0.08091441 -0.09339936 0.007973928 -0.13056327
0000c0 2c 3c fe bd ef e4 3e bd f5 28 de 3d ca 3d c6 be
       -0.124138206 -0.046605047 0.10847656 -0.38719016
0000d0 fb 90 26 bd 92 4d 01 3d a3 9b b5 be 74 c4 9f be
       -0.040665608 0.031568117 -0.35470304 -0.3120457
0000e0 ac 0f ba bd 36 0f fe bd 1c d9 34 be 0b 93 4d 3c
       -0.090850204 -0.12405245 -0.17660946 0.012547265
0000f0 a3 a9 dc 3d fc 14 f0 bd fd 25 99 3c ac 17 e7 3d
       0.10774543 -0.117227525 0.018694872 0.11283812
000100 af 10 ca 3d c8 98 c3 bc ea 92 1a 3e e0 d2 67 be
       0.098664634 -0.023876563 0.15095106 -0.22639036
000110 0a f0 66 bc 06 1a 05 3e 1d 90 44 3d 8d 73 ba bd
       -0.014095316 0.12998208 0.047989 -0.09104071
000120 1c f0 e9 bd 56 2a a6 bd 92 4d 38 be 3a a7 14 bd
       -0.1142275 -0.08113544 -0.1799834 -0.036292292
000130 8b 63 d2 3d 14 b6 f5 bd 5e 20 1f be 25 32 26 3e
       0.102728926 -0.11997619 -0.15539691 0.16230066
000140 11 f7 02 be 83 1f 1d bd c7 a8 89 bc 03 39 77 be
       -0.12789561 -0.03836013 -0.016804112 -0.24142842
000150 ef c0 bd 3d 1c 70 2d bb b7 3c 0f 3e e1 6a 5e 3d
       0.09265315 -0.0026464527 0.13988005 0.054301146
000160 b9 68 49 bd cb b5 70 bd 57 d6 4d bd 8f 3e 2d 3e
       -0.049172137 -0.05876712 -0.05025324 0.16918395
000170 cf f5 93 bd 8f d3 2f bd 66 4e 34 3e 9c 95 34 be
       -0.07224619 -0.042926367 0.17608032 -0.17635196
000180 50 50 6a bd a6 02 11 be 99 e2 64 be 8f 61 a1 bb
       -0.0572055 -0.14161167 -0.22352065 -0.00492496
000190 3b d1 c0 bd e4 bf b7 3d bd e1 41 bd 70 8c 90 3b
       -0.094149075 0.08972147 -0.04733442 0.0044112727
0001a0 d3 6d 86 be ec 68 02 be fa 71 11 3d b0 47 9c bc
       -0.26255664 -0.12735337 0.035509087 -0.019077152
0001b0 2c f8 cb 3c 49 0d 6a be a1 73 6e be 07 b8 44 be
       0.024898611 -0.2285663 -0.23286296 -0.19210826
0001c0 f1 52 01 3e 9c b2 43 3d f4 3a af bc 40 65 06 3e
       0.12629296 0.047777757 -0.021390416 0.13124561
0001d0 fd b4 51 be e2 2c 11 be 43 ad f2 bd d6 51 9b bd
       -0.20479198 -0.14177278 -0.11849453 -0.07583968
0001e0 d1 f3 46 3e 9d fb 28 3d 10 a5 5c bc 48 32 fc bd
       0.19428946 0.041255582 -0.013467088 -0.12314278
0001f0 3e 69 dd 3d 6d 4e 3f be fa 6d b3 bd 36 17 52 3e
       0.10811089 -0.18682261 -0.08761211 0.20516667

net.2.weight f4 [64, 128]
000000 51 4a a9 bd c1 93 cc bc e8 07 8d bd 43 7c 34 be
       -0.08266128 -0.024972798 -0.068862736 -0.17625527
000010 6f 28 06 3e 60 e6 69 3d bf 5a a8 3b ad b1 7d 3d
       0.13101362 0.05710447 0.005137771 0.061937023
000020 25 a2 b7 bd 78 a7 ed 3d e5 52 2c 3d d9 c8 6d 3d
       -0.089664735 0.11604208 0.042071242 0.05805287
000030 1e 96 31 bc d2 62 d7 bd 85 8c 03 3d 8d b8 8c 3d
       -0.010839013 -0.10516895 0.03211643 0.06871138
000040 0a ae 8c 3d 9f ff 59 3d 26 5a ce 3c 43 8f fc 3b
       0.06869133 0.053222295 0.02518947 0.007707508
000050 36 d9 dd 3d 1e d5 15 3d fe 95 88 bd b2 b9 62 3c
       0.10832445 0.036580198 -0.06669234 0.0138382185
000060 14 36 ef bd 64 39 4d 3d 0b 3e 35 bd 4a d4 4a 3d
       -0.116802365 0.05010356 -0.044248622 0.04951886
000070 ff 1b c2 bd 05 9c 12 be 53 ea 56 3d 50 a4 cf 3c
       -0.09477996 -0.14317329 0.052469563 0.025346905
000080 5c cd 3d 3d 22 7f d6 bb 42 59 6f 3c 2e 15 91 3d
       0.046338424 -0.006545917 0.014608683 0.07084118
000090 82 2b dd 3a da 3b 46 bd 90 38 04 be 67 ed a6 3d
       0.0016873928 -0.048396923 -0.12912202 0.0815075
0000a0 05 6c f7 3d 6d a6 ab 3c 7b c6 47 3c 42 55 c5 bc
       0.1208115 0.020953381 0.0121933175 -0.024088506
0000b0 a3 c7 9e 3d 1a 54 d6 bc 6a 68 56 3d 08 40 23 3e
       0.077529214 -0.02616315 0.05234567 0.15942395
0000c0 60 41 5f 3c e9 21 cd 3d 34 03 a2 bb a8 85 70 3d
       0.013626426 0.100162335 -0.0049442295 0.058721215
0000d0 26 25 42 3d 0d 12 31 3d 58 c3 93 b8 c9 c1 d5 3c
       0.04739871 0.043230105 -7.045892e-05 0.02609338
0000e0 e2 7a 3e 3d 43 23 97 3d 6a 0d 5e 3c 93 28 16 be
       0.04650391 0.073797725 0.013553003 -0.14663915
0000f0 70 08 ae 3a 52 ac a4 3c ea 0c 85 be a1 cf 1e 3c
       0.0013277661 0.0201017 -0.25986415 0.009693057
000100 c4 4a b9 bc d3 d2 a7 3d c1 0d 3c bd 9b 2f c5 bc
       -0.022618659 0.081945084 -0.045911554 -0.024070552
000110 42 b2 97 be d3 af dc bd 57 5a 6e bd 6e 35 6f bd
       -0.29628187 -0.10775723 -0.058191624 -0.058400564
000120 0e f1 9b bd 01 9a b8 3d d1 d9 92 bd c0 97 ca bd
       -0.07614337 0.09013749 -0.071704514 -0.09892225
000130 88 96 31 be e5 c8 8c be e2 97 25 3e b3 4e 19 be
       -0.1734258 -0.2749702 0.1617122 -0.14971428
000140 e6 f6 46 bd 73 74 af bd d7 81 b1 bd 65 36 ba 3d
       -0.048575304 -0.08567133 -0.08667343 0.09092406
000150 f3 8d e9 bc 7d 9d 3f 3d 9f 3a e0 3c 28 b4 f0 3c
       -0.02851007 0.046781052 0.027371703 0.02938278
000160 ff 69 06 3d 52 5e 2f 3e 98 eb 15 3d 1a 8f 38 be
       0.03281593 0.17125824 0.036601633 -0.18023339
000170 9b 61 bf bb 70 2e 10 3e a1 ec 8c bd 64 85 8d bd
       -0.005840493 0.14080215 -0.06881071 -0.06910208
000180 15 07 43 bd 3a b2 ad 3d 8d 88 04 be 6a 9b f6 3d
       -0.047614176 0.0848126 -0.12942715 0.12041362
000190 7a fb 69 bb ca 22 ba bd 90 d5 bd bd d9 c8 c9 bd
       -0.003570287 -0.09088667 -0.092692494 -0.09852762
0001a0 86 57 eb 3d 40 70 44 3b 4e a4 25 3c 5a 6a 70 bd
       0.11491303 0.0029974133 0.010109974 -0.058695175
0001b0 13 c0 ca 3d f1 63 42 3d 00 b8 86 bc 13 d8 f8 bc
       0.098999165 0.047458593 -0.01644516 -0.03037647
0001c0 d3 94 0e 3d 63 05 c9 3d 89 85 32 be 04 d6 f5 3d
       0.0348099 0.098154806 -0.17433752 0.12003711
0001d0 ea 3a 98 3e 64 74 54 bd e0 6b 29 be 28 23 38 3d
       0.29732448 -0.05186881 -0.16545057 0.044955403
0001e0 40 ee 74 3b 78 a5 4b bc 9c 28 bb bd dd 85 92 b9
       0.0037373453 -0.012429588 -0.09138605 -0.00027947026
0001f0 c6 61 24 bb 3f eb 19 3e 6f 7d 66 3e 8b 57 08 3b
       -0.0025082692 0.15031146 0.22508787 0.0020804133
000200 18 44 4f 3d e7 26 ee 3d 19 1a ab 3d a8 21 f3 3c
       0.05060205 0.11628514 0.08354587 0.029679134
000210 29 d5 97 bd d2 97 13 3d 47 be 03 bc 1f c8 3f bd
       -0.07413704 0.03603346 -0.008040971 -0.04682171
000220 ef 2b ed 3c 9c 1c 49 3d f5 4a 3e 3b b3 00 8d bb
       0.028951613 0.04909955 0.0029036377 -0.004303062
000230 60 dc a4 bd 76 b4 b0 bc 7b b3 0f be 52 5c a3 bd
       -0.08049846 -0.021570425 -0.1403331 -0.07976593
000240 40 36 ad 3d cb 6e 78 bc 60 db 6b 3c 31 ef a0 3d
       0.08457613 -0.015163134 0.014395565 0.07858122
000250 f2 f1 93 be 5b a3 68 3d 7e 2c a2 3d 3d 93 47 3d
       -0.28895527 0.056796413 0.079186425 0.0487244
000260 3a 45 de 3c e9 9a 01 3d cb dd cf bc 88 d6 92 b9
       0.02713262 0.031641874 -0.025374314 -0.00028007128
000270 fe fb a8 3d 90 dd f9 bc be aa ab bc 8e c6 40 3c
       0.08251189 -0.030501157 -0.02095544 0.011766089
000280 ce 59 ec bc 33 51 91 3c ae 6a b8 3c f8 d9 f2 3c
       -0.028851416 0.017738914 0.022511806 0.029644951
000290 a7 26 2d 3d 81 97 42 bd 20 e1 8c bc d9 e9 52 3d
       0.04227319 -0.047507767 -0.017197192 0.051492546
0002a0 0c f7 d1 bc bc bd a4 3d fe e5 46 3c eb f2 ad 3d
       -0.025630496 0.080440015 0.012139795 0.084935986
0002b0 3d b0 9e bc dc bc 75 bd c5 99 20 bc 20 7d 53 bd
       -0.019371146 -0.059994563 -0.0098022865 -0.051633
0002c0 de 1b 22 3d 15 2e 87 bb 04 28 09 3d 4c 71 2b bd
       0.039577357 -0.0041253665 0.033485427 -0.041856095
0002d0 b4 b0 51 bc 05 e6 5a 3d 6b 60 ad bd 9e 77 a8 bd
       -0.012798477 0.05344202 -0.08465656 -0.0822594
0002e0 7b 51 68 3d 12 e1 18 3d fd 8b 91 bc 3f 9b 53 3d
       0.05671833 0.03732402 -0.017766947 0.051661726
0002f0 c3 ba fc bc b3 61 ba b9 ee 89 97 bc f1 f9 02 3c
       -0.030850774 -0.00035549476 -0.018498387 0.007994161
000300 d1 7e a1 3d ac 58 49 bd 6e d1 4e bd 3b db a4 bd
       0.078855164 -0.04915683 -0.050492696 -0.080496274
000310 06 cb 17 3c 3e d5 a3 3d 89 42 9c bc 9f a7 fb 3c
       0.009264713 0.07999657 -0.019074695 0.030719576
000320 38 58 fd 3c 26 22 9e 3d 33 0a e4 bd 04 99 7f 3d
       0.030925855 0.07721357 -0.11134758 0.062401786
000330 4a 3d 04 bd 45 ee 44 3c c0 dc 3f bc f6 6a a6 bc
       -0.032285012 0.0120196985 -0.011710346 -0.020314675
000340 e5 89 65 bd 5d 7f 89 bd cd be 10 bd 1c 23 e9 bc
       -0.05603971 -0.06713746 -0.03533821 -0.028459124
000350 5e f6 bb 3d 4d 3e 8b bd 55 58 0d 3d 94 0f ad 3d
       0.0917785 -0.06798992 0.034508068 0.08450237
000360 e9 62 b4 bd 94 81 00 bd be 8c 5c 3d a1 56 5a 3d
       -0.08807928 -0.031373575 0.05384516 0.053305272
000370 54 e8 4c 3d 34 e8 91 3d 4c 7a 17 bd 4a 3b d9 3b
       0.050026253 0.07124367 -0.036981866 0.0066293823
000380 15 c7 2c 3c 12 8e 02 3d 97 d4 95 bc 1f 44 85 bd
       0.010545512 0.03187377 -0.018289847 -0.06507134
000390 a4 ba 1e 3d 6f 8b 70 bc 71 1a a8 3d 43 2f 2b bd
       0.038752213 -0.014681681 0.08208168 -0.04179312
0003a0 d3 3f 1f be b8 39 e7 3c 2d 72 a1 3d ce e5 ba 3d
       -0.15551691 0.028225765 0.078831054 0.09125863
0003b0 17 7d 83 3d b1 15 02 3e da 34 fb bd 7b 2a c6 bd
       0.06420343 0.12703587 -0.1226594 -0.09676071
0003c0 0d 0c bd 3a 24 11 a6 3d 08 7b 6a bd f4 97 c4 3c
       0.0014423147 0.08108738 -0.057246238 0.023998238
0003d0 f7 05 bf 3c 67 81 85 bd 02 4a 6e 3d d6 db 23 bc
       0.023318274 -0.06518822 0.058176048 -0.010001143
0003e0 19 b9 43 3d a7 82 32 bd ed bb 55 bd c3 d8 85 3d
       0.047783945 -0.04358163 -0.052181173 0.06535485
0003f0 93 f6 2a 3d ff a9 28 bc 4e 23 2a ba 56 b9 13 bc
       0.041739058 -0.0102944365 -0.0006490246 -0.0090163555

net.2.bias f4 [64]
000000 52 37 3b bd cb fe f9 bb 9c 08 ca 3c 43 db ce 3d
       -0.045707054 -0.0076292506 0.024662308 0.101004146
000010 d9 9a bd bd 5d ff a3 3d 45 94 0d 3c d9 ee 43 bd
       -0.092580505 0.08007691 0.008641307 -0.047835205
000020 a6 c8 8a bd 3d 72 55 3d fa ed 78 bc f7 3e f9 bc
       -0.06776552 0.0521109 -0.015193457 -0.030425532
000030 c5 32 f7 bc 28 f1 f1 3c f4 81 d7 3c 3f 34 70 bd
       -0.030175576 0.029533938 0.026307084 -0.058643576
000040 78 ce d5 bd f3 25 59 bc 39 1a ca bd 23 db 6a 3c
       -0.104397714 -0.013253677 -0.09868283 0.014334473
000050 51 99 b4 3c 8d 5f be bd 03 d0 c5 3b ea de d7 3d
       0.022045763 -0.092955686 0.00603676 0.10540564
000060 2d 35 99 3d a8 f6 02 bd ea 84 af 3c 24 2e 9d 3b
       0.074808456 -0.03197351 0.021425683 0.00479676
000070 dd 3f 99 ba 57 c9 83 bd 48 9d aa 3d 22 78 7a 3d
       -0.0011692006 -0.06434887 0.0833078 0.061149724
000080 ea 0c 24 bd 7e f0 b1 3c 79 aa f8 3b 4d a4 7b 3d
       -0.04005138 0.02172112 0.0075886813 0.061435986
000090 3a 0b 9e 3c cb a1 ce bd a3 f9 24 3d 42 6e 87 bc
       0.019292463 -0.10089453 0.040277135 -0.016532067
0000a0 11 bb a9 bd f3 ea 09 bd fe 84 30 3d ac 07 18 3e
       -0.08287633 -0.03367133 0.04309558 0.14846677
0000b0 38 28 83 3d 0a 5b 67 3d 1a 4e 91 bd 74 3e 69 bd
       0.064041555 0.056483306 -0.07094975 -0.056944326
0000c0 f6 66 d3 3a b4 80 42 bc e4 b2 de 3d 52 41 2b 3e
       0.0016128707 -0.0118715055 0.108739644 0.16724136
0000d0 a0 70 14 3e c7 c7 13 3d 3c 39 91 bc 1e a7 f8 3d
       0.14496088 0.036079194 -0.017727487 0.1214125
0000e0 a2 c9 fa 3c f2 b3 8c 3d 24 4e 82 3d fd d4 11 3e
       0.030613724 0.06870259 0.063625604 0.14241405
0000f0 b9 6f 87 3b a1 46 12 bc d0 72 8b 3d 88 b5 15 be
       0.0041331914 -0.008927972 0.06809008 -0.1462003

coord_head.weight f4 [2, 64]
000000 d2 6d e1 3d bd 7b 94 bc 86 12 a6 3d 30 66 8e 3d
       0.11007275 -0.01812541 0.08109002 0.069530845
000010 41 08 a2 bd 3f c7 f6 3c f8 78 95 bc fb 8c 4b be
       -0.079117306 0.030124305 -0.018246159 -0.19877999
000020 f7 44 d2 bc f8 b8 1e 3d 11 e2 dd b9 9a 0a 44 3d
       -0.02566765 0.03875062 -0.00042320837 0.047861673
000030 95 97 ce bd da da 0b 3d ab 93 f6 bd ff 9b 84 3c
       -0.10087506 0.03414426 -0.12039884 0.016187666
000040 1d a5 9a bd e5 4a 33 3d 49 c2 37 3d ce f2 9c bc
       -0.07551024 0.043772597 0.04486302 -0.019158747
000050 1c 30 bb b9 e3 f1 9e bd a2 c5 08 bc 4e a1 88 3d
       -0.00035703264 -0.0776098 -0.008347901 0.066713914
000060 63 cc 2e 3d 8a ba bb bd 24 8c a4 3d 6c c9 bd 3c
       0.042675387 -0.09166439 0.08034542 0.023167334
000070 86 f5 a4 bd 4f ad 04 be 29 ee 70 3d 1f c4 aa 3d
       -0.080546424 -0.12956737 0.058820877 0.083381884
000080 f1 1f 0e bd a8 bd 42 3e d4 f8 75 bd df 2b b3 bd
       -0.03469843 0.1901766 -0.060051754 -0.08748602
000090 a5 d9 e6 3d 19 a4 1d bd 25 85 89 3d 5d ac 98 3c
       0.11271981 -0.038486574 0.067148484 0.018636877
0000a0 7e 18 09 bd db 78 d9 bd 2e 96 d5 bd fd c1 90 3d
       -0.033470623 -0.106187545 -0.10429035 0.0706825
0000b0 6d 6e 10 3b af d2 1b 3d a4 84 1e be 74 25 6d be
       0.0022038475 0.03804272 -0.15480286 -0.23158818
0000c0 67 76 61 3d bb 39 3f 3d 51 ad 22 bd f3 3d 82 bc
       0.055044558 0.046685915 -0.03971607 -0.01589868
0000d0 89 b3 d7 bc 3f fe f7 3d 60 38 b4 3d 31 81 87 3b
       -0.026330726 0.121090405 0.08799815 0.004135274
0000e0 ab 88 75 bd ac 42 28 be 89 c6 14 3e 96 5a db 3c
       -0.05994479 -0.16431683 0.1452886 0.026776593
0000f0 7f 90 9e bd c9 4a c9 3d 44 f2 dc 3b 61 88 92 bc
       -0.07742404 0.09828717 0.0067427475 -0.017887296
000100 39 a3 9a bd 2f c7 6c 3c f2 7b 94 3d 42 11 d9 3d
       -0.075506635 0.014451786 0.07250203 0.10598995
000110 d0 71 14 3d 43 71 80 3c 6b e0 90 3d 46 f7 86 3e
       0.036241353 0.015679007 0.07074054 0.2636053
000120 5f 5d 07 bd 64 ae 63 3d 30 78 2a 3b 84 6d fd bd
       -0.03304803 0.055586234 0.0026011579 -0.12374404
000130 71 b9 0e 3d e3 78 55 3c 71 6b a3 bb da 62 a7 bd
       0.03484482 0.01302931 -0.0049871732 -0.08173151
000140 5a 37 a4 bc aa 66 ef 3a 73 10 03 bd eb 53 75 3c
       -0.020045925 0.0018264849 -0.03199811 0.014973621
000150 8c 86 19 be 28 ba 80 bd 2e ec 4c 3c 14 b8 88 3c
       -0.14992732 -0.062855065 0.0125074815 0.016689338
000160 51 a7 66 bd 98 e3 8c 3c c9 31 8e 3d ec ef 11 3e
       -0.05631191 0.017198369 0.069430895 0.14251679
000170 c3 f1 9a 3d 36 ca 3e bd 88 36 b4 3d 50 7a c4 bc
       0.07565644 -0.046579562 0.087994635 -0.023984104
000180 44 e0 99 3d 86 2f a9 bd 7e 99 ef 3d 95 c1 7a 3b
       0.075134784 -0.082610175 0.11699198 0.0038262357
000190 a8 e8 7c be 81 b6 87 bc 00 c6 83 3d c0 e5 ed bd
       -0.24698126 -0.016566517 0.0643425 -0.11616087
0001a0 62 0f 6d 3d 1e 7a 30 bd 59 d2 d1 3d f1 d1 6c 3d
       0.057876 -0.04308521 0.10245199 0.057817403
0001b0 63 b7 ac 3d ce 19 c5 bb 47 d7 6c bd fb fa f1 bc
       0.08433416 -0.006015039 -0.057822492 -0.029538622
0001c0 3d e7 9f 3d 1a 3f 1a 3d c6 20 75 3d 37 52 eb 3d
       0.07807777 0.037657835 0.05984571 0.114902906
0001d0 e5 53 9b 3d 6e 6a 81 3d a6 4a 2a 3d b5 82 48 3c
       0.07584361 0.06319128 0.041575097 0.012238194
0001e0 dd 23 e3 bc 1a 73 57 be 27 05 e8 3d 60 06 d4 3d
       -0.027727062 -0.21040002 0.11329108 0.103527784
0001f0 2e 1d 9e bd ae 3f ab be 6b 02 46 3c ba e6 42 be
       -0.07720409 -0.3344702 0.012085537 -0.19033328

coord_head.bias f4 [2]
000000 1b a1 30 3b 3d 4e ad 3d
       0.0026951495 0.084621884
