outputs/checkpoints_v2/mlp_real_gps_scaled_v2_dl.pth (torch, 57980 bytes, 6 tensors)

net.0.weight f4 [128, 41]
-0.2863079 0.10092809 0.16690002 0.14995207 -0.06444854 -0.07079465 0.26876947 0.08974093
0.31374708 -0.099192366 0.022130279 0.15176266 0.04120248 -0.16701096 -0.041355755 -0.013984101
0.0016120967 0.020741457 0.12539394 -0.16451555 -0.0027991359 0.28436762 0.07991773 -0.5923752
-0.059547074 -0.03522323 -0.12859342 0.009415219 -0.020519733 -0.0025375749 0.0374376 0.19907527
-0.0889213 0.1657916 -0.08057686 -0.24176614 -0.5263515 0.15300055 0.17891575 -0.27178258
-0.12648328 0.21622391 0.008626319 0.019758534 0.08092259 0.005707577 -0.040876463 0.0004011211
0.016600078 -0.020531805 -0.14515267 0.07622581 0.034709983 -0.10739622 -0.011376455 0.063348375
-0.057732247 -0.044042803 0.06559248 0.016983768 0.044152364 -0.03805972 -0.024693213 0.0114393765
0.07436411 -0.26919958 0.11137564 0.04383863 -0.102374636 -0.07510638 0.0017185049 0.08667961
0.17061333 -0.022422535 -0.10136724 -0.017462438 -0.024824217 -0.1626979 -0.1112504 0.0062166755
-0.059466444 0.12750414 -0.24222435 -0.053650714 -0.04572411 0.3101905 -0.22823037 0.059652854
-0.11815758 0.015915314 0.18626976 -0.010848555 -0.02959517 -0.16284853 -0.38954097 0.026044812
0.029402008 0.10708604 -0.03980836 0.05681822 -0.005084827 0.068994895 -0.022290122 -0.17744862
-0.03348605 0.27539232 -0.103260376 0.19117595 0.24363016 0.08649655 0.15857424 -0.09129024
0.09980604 -0.05761247 0.033439774 -0.14828302 0.06906336 0.044927765 -0.08143594 -0.0021503451
0.10174739 -0.09938307 0.055689994 -0.21423273 -0.043826796 -0.28430307 -0.30450264 -0.06953452
-0.14678964 0.061285086 -0.14681344 -0.11526485 -0.05753268 0.06599576 -0.22832923 -0.06773794
0.0025081234 0.0129311355 -0.007176879 0.19760743 -0.26948813 0.06236773 -0.22291769 0.06443531
-0.1975414 -0.17975932 -0.100167274 -0.15013775 0.035440177 -0.15771686 -0.24888271 -0.1580705
-0.08218994 0.005068088 -0.2674151 -0.24931796 0.0057831053 -0.26387754 -0.12188443 -0.13072176
-0.18399176 0.020798706 0.09537714 0.023132006 0.0031740637 0.1330817 -0.008084311 0.029224357
-0.26740626 0.014116418 -0.03448634 -0.11745501 0.095015965 -0.07946684 0.0021329068 0.050846677
0.016668294 -0.037924834 0.070337944 -0.11061626 -0.10709593 0.23591435 0.18438423 0.03633614
-0.047802363 -0.09630726 0.08184879 0.18992423 0.0015968421 0.061712097 0.1276014 0.18598506
0.022221727 -0.025201432 -0.06093907 -0.08659188 0.20883608 0.20703922 0.091465324 -0.15589751
-0.01462003 -0.0059801387 0.05213819 -0.11839381 0.0903452 0.028674874 0.28819373 0.07804744
0.0036419486 0.049109843 0.08052485 -0.113818675 0.02161933 0.24865717 0.03585857 0.21253227
0.20546868 0.12132725 0.05282688 0.05802992 0.011249103 -0.060326178 0.11694126 0.18800235
-0.1499988 -0.024726214 1.8788269e-06 -0.0412283 0.37054402 -0.27667025 0.13934055 0.13579717
-0.59424084 -0.33969715 0.1760303 0.09837164 -0.3041983 -0.3112718 -0.03546522 -0.045010023
-0.0067724246 0.033333834 -0.08886282 0.09580736 -0.18071815 -0.02972151 -0.0980496 0.12553357
-0.00095302885 0.016023679 0.00079646154 -0.06616135 -0.016445655 -0.07426307 -0.17867671 -0.06234632
00000000: f396 92be 63b3 ce3d d7e7 2a3e 098d 193e
00000010: 99fd 83bd c9fc 90bd 279c 893e 18ca b73d
00000020: 75a3 a03e 5e25 cbbd 8f4a b53c ac67 1b3e
00000030: efc3 283d ec04 2bbe a764 29bd 921d 65bc
00000040: fd4c d33a fde9 a93c 4567 003e c476 28be
00000050: b571 37bb a298 913e e8ab a33d e7a5 17bf
00000060: a2e7 73bd 3c46 10bd fead 03be 4a42 1a3c
00000070: 0019 a8bc 714d 26bb 2b58 193d 63da 4b3e
00000080: 5f1c b6bd 46c5 293e 7b05 a5bd 8b91 77be
00000090: f9be 06bf 2dac 1c3e b135 373e 1627 8bbe
000000a0: d584 01be cd69 5d3e 6755 0d3c a6dc a13c
000000b0: beba a53d a006 bb3b 146e 27bd 904d d239
000000c0: e3fc 873c 5132 a8bc e7a2 14be 471c 9c3d
000000d0: 0e2c 0e3d 8df2 dbbd 5064 3abc cbbc 813d
000000e0: a678 6cbd 3a66 34bd 5a55 863d 8b21 8b3c
000000f0: 1cd9 343d 82e4 1bbd 6c49 cabc 396c 3b3c
00000100: 364c 983d 87d4 89be e918 e43d 2390 333d
00000110: cba9 d1bd 60d1 99bd 753f e13a 1485 b13d
00000120: 43b5 2e3e 77af b7bc a199 cfbd 630d 8fbc
00000130: 285c cbbc 479a 26be 40d7 e3bd 41b5 cb3b
00000140: 1693 73bd 7290 023e a909 78be dac0 5bbd
00000150: 3449 3bbd 4ad1 9e3e 39b5 69be 8d56 743d
00000160: 9afc f1bd d560 823c 80bd 3e3e 23be 31bc
00000170: 9271 f2bc c4c1 26be ea71 c7be ee5b d53c
00000180: 7bdc f03c ed4f db3d 170e 23bd 39ba 683d
00000190: 9f9e a6bb 324d 8d3d c699 b6bc 17b5 35be
000001a0: ab28 09bd 3900 8d3e 2d7a d3bd a1c3 433e
000001b0: 2f7a 793e 1a25 b13d 4961 223e 61f6 babd
000001c0: 1c67 cc3d 0efb 6bbd 25f8 083d 81d7 17be
000001d0: 1771 8d3d 2d06 383d e3c7 a6bd ceec 0cbb
000001e0: f060 d03d 5a89 cbbd 311b 643d d35f 5bbe
000001f0: ba83 33bd 2c90 91be c5e7 9bbe 1d68 8ebd
00000200: 0650 16be 1206 7b3d 4356 16be fa0f ecbd
00000210: 63a7 6bbd c928 873d 23cf 69be 30ba 8abd
00000220: 545f 243b 1ddd 533c 062c ebbb 9a59 4a3e
00000230: 59fa 89be 4e75 7f3d 8944 64be a9f6 833d
00000240: 4b48 4abe d412 38be 8024 cdbd b6bd 19be
00000250: b829 113d 8780 21be 1cdb 7ebe 3cdd 21be
00000260: 3353 a8bd 3412 a63b a2ea 88be 354d 7fbe
00000270: 3480 bd3b f51a 87be 8b9e f9bd eddb 05be
00000280: 5668 3cbe 0c62 aa3c 1755 c33d 557f bd3c
00000290: f403 503b 9246 083e 0f74 04bc eb67 ef3c
000002a0: 79e9 88be 8c48 673c 8c41 0dbd 418c f0bd
000002b0: bb97 c23d 83bf a2bd 3dc8 0b3b 9b44 503d
000002c0: f28b 883c 1257 1bbd 570d 903d c78a e2bd
000002d0: 1c55 dbbd 8893 713e 38cf 3c3e 34d5 143d
000002e0: 69cc 43bd be3c c5bd 57a0 a73d 7f7b 423e
000002f0: 214d d13a d3c5 7c3d f1a9 023e de72 3e3e
00000300: 570a b63c 3c73 cebc 3f9b 79bd 1557 b1bd
00000310: 20d9 553e 1702 543e 2c52 bb3d 99a3 1fbe
00000320: da88 6fbc 0af5 c3bb db8e 553d 7478 f2bd
00000330: e706 b93d 92e7 ea3c 218e 933e 56d7 9f3d
00000340: c2ad 6e3b 6727 493d 36ea a43d c419 e9bd
00000350: 051b b13c fc9f 7e3e 70e0 123d 0fa2 593e
00000360: 6266 523e 6c7a f83d 0061 583d c8b0 6d3d
00000370: 284e 383c 9518 77bd e67e ef3d b083 403e
00000380: 4999 19be a18e cabc 002c fc35 02df 28bd
00000390: f2b7 bd3e b9a7 8dbe 4aaf 0e3e 6a0e 0b3e
000003a0: 2b20 18bf c9ec adbe 4941 343e 1277 c93d
000003b0: e1bf 9bbe 045f 9fbe fb43 11bd 6e5c 38bd
000003c0: 37eb ddbb 0f89 083d b6fd b5bd a636 c43d
000003d0: 2e0e 39be 867a f3bc 3bce c8bd df8b 003e
000003e0: afd4 79ba 1744 833c a1c9 503a 9a7f 87bd
000003f0: 0ab9 86bc 3d17 98bd 07f7 36be db5e 7fbd

net.0.bias f4 [128]
-0.40084445 -0.5362362 -0.5328364 0.18100993 -0.49635702 -0.3783666 -0.46278748 -0.5440918
-0.34731048 -0.3378677 -0.5729641 -0.42938924 -0.2643658 0.13799296 -0.39808095 -0.52650785
-0.25130883 -0.19748102 -0.30119917 -0.32022837 -0.3555487 -0.38371846 -0.2815896 -0.39033693
-0.76211 -0.72899127 -0.2297212 -0.22048078 0.061344266 -0.31359252 -0.028969634 -0.4881241
-0.4861021 -0.59232837 -0.2839117 -0.37457737 -0.45487016 -0.5361543 -0.29224753 -0.21783724
-0.55962574 -0.10969051 -0.34117824 -0.5127306 -0.20036109 -0.5463687 -0.54935074 -0.49974516
-0.45990515 -0.1923675 -0.13114604 -0.35443476 -0.44539857 -0.5651272 -0.43417737 -0.42987978
-0.4612739 -0.38962665 -0.45588207 -0.30079338 -0.6920984 -0.10724535 -0.35883197 -0.5688508
-0.4826578 -0.4737744 -0.49275082 -0.30327287 -0.331581 -0.2589916 -0.31305638 -0.1759556
-0.6992658 -0.3235533 -0.2215139 -0.56833464 -0.521801 -0.5173959 -0.6014263 -0.45766026
-0.39320767 -0.04266117 -0.2261733 -0.59245884 -0.43250078 -0.3156854 -0.56577486 -0.3496051
-0.34551343 -0.46823826 -0.21513581 -0.32052696 -0.5046945 -0.25852022 -0.4535663 -0.42309657
-0.37058958 -0.42460734 -0.47017884 -0.4773704 -0.24165553 -0.18400708 -0.22878799 -0.50383824
-0.36313656 -0.42091966 -0.2959348 -0.599966 -0.35948655 -0.63170093 -0.3913772 -0.32247072
-0.4270479 -0.49979478 0.0058206734 -0.5144478 -0.46758312 -0.47448745 -0.24543962 -0.113825046
-0.61091053 -0.44700223 -0.33517227 -0.26827598 -0.24611673 -0.07338673 -0.41497847 -0.0052548354
00000000: 7c3b cdbe c746 09bf f767 08bf ab5a 393e
00000010: 8222 febe 44b9 c1be 7bf2 ecbe 9a49 0bbf
00000020: aed2 b1be fffc acbe c6ad 12bf e8d8 dbbe
00000030: f45a 87be 074e 0d3e 44d1 cbbe 38c9 06bf
00000040: 8dab 80be 7738 4abe c736 9abe f9f4 a3be
00000050: 7b0a b6be bf76 c4be 832c 90be 3eda c7be
00000060: a419 43bf 2c9f 3abf 093c 6bbe b7c5 61be
00000070: 2044 7b3d 338f a0be ba51 edbc 67eb f9be
00000080: 60e2 f8be d5a2 17bf e05c 91be 9bc8 bfbe
00000090: bee4 e8be 6941 09bf 78a1 95be ba10 5fbe
000000a0: a243 0fbf 6ba5 e0bd eaae aebe 5042 03bf
000000b0: 752b 4dbe d2de 0bbf 40a2 0cbf 99de ffbe
000000c0: b078 ebbe fcfb 44be 264b 06be 7978 b5be
000000d0: 480b e4be 2dac 10bf 7f4c debe 3419 dcbe
000000e0: 182c ecbe 257d c7be 6069 e9be 9701 9abe
000000f0: 5c2d 31bf 73a3 dbbd d3b8 b7be 35a0 11bf
00000100: ec1e f7be 8f92 f2be d649 fcbe 9546 9bbe
00000110: fcc4 a9be 8c9a 84be ed48 a0be b42d 34be
00000120: 1503 33bf c7a8 a5be 8ad4 62be 617e 11bf
00000130: c094 05bf 0f74 04bf 13f7 19bf 7252 eabe
00000140: 8452 c9be 7bbd 2ebd f999 67be 62ab 17bf
00000150: be70 ddbe 84a1 a1be 9fd6 10bf 71ff b2be
00000160: 23e7 b0be edbc efbe 904c 5cbe 1c1c a4be
00000170: a933 01bf c35c 84be d839 e8be 1da0 d8be
00000180: ebbd bdbe 2266 d9be 48bb f0be e569 f4be
00000190: 8c74 77be 5a6c 3cbe 6647 6abe 8bfb 00bf
000001a0: 09ed b9be c882 d7be c484 97be 5f97 19bf
000001b0: 9f0e b8be 27b7 21bf 9862 c8be e21a a5be
000001c0: 06a6 dabe 1ae5 ffbe 59bb be3b dab2 03bf
000001d0: 0e67 efbe 05f0 f2be 8654 7bbe 1b1d e9bd
000001e0: a264 1cbf 7add e4be b39b abbe 785b 89be
000001f0: 0606 7cbe c84b 96bd 0f78 d4be c130 acbb

net.2.weight f4 [64, 128]
0.057885893 -0.111511126 -0.084553204 -0.093873575 -0.0033270032 -0.012225198 -0.11972114 -0.23056996
0.23205726 0.10824162 0.0401787 -0.3993243 0.24161038 -0.08774352 -0.08574133 -0.0142106265
-0.05246114 0.10593249 -0.28396365 0.040367234 -0.0651768 -0.063403934 0.0053964322 0.12823102
-0.11583388 0.04938737 -0.39310446 0.047516603 -0.013409469 -0.051234256 -0.08112615 0.23054154
-0.09962305 -0.3001854 -0.09496139 0.031129038 -0.24330102 0.10108117 -0.3506165 0.020446658
-0.0025406461 -0.1352475 0.19684358 -0.12859395 0.1864298 -0.2571891 0.032579202 -0.04292345
-0.12869476 0.055251334 -0.1601058 -0.09666126 0.0907987 0.0793917 -0.16534702 -0.0035749117
-0.036261108 -0.0058119814 0.11633361 -0.1959233 -0.044054486 0.020695457 0.117667645 0.039196085
0.14176698 -0.5585131 -0.002161037 -0.18675913 -0.012582853 0.17749257 -0.10098975 0.04312199
0.13478366 -0.04125376 0.21338557 0.14288552 -0.111802235 0.040386297 -0.15897922 -0.1619679
-0.0066068885 -1.0129552 -0.017139858 -0.6427222 0.4075732 -0.15742321 -0.09794553 0.02202235
0.02024827 0.002174578 -0.73551375 -0.36514688 0.1276699 0.069185615 -0.28240347 -0.0254416
-0.55527395 0.24411474 -0.15610398 -0.109643415 -0.28245595 0.034254633 0.018907579 -0.011134693
-0.109610684 -0.04567829 0.14234495 0.13074082 0.06252274 0.036256067 -0.044277173 0.28055254
-0.007887697 -0.091298856 -0.082018465 -0.12032009 0.05255125 0.00981361 -0.07735025 -0.28906456
0.053269166 0.08048923 0.06533785 -0.12270513 0.12515579 0.040273037 0.06147785 0.049537648
-0.033393245 0.07673166 0.12595198 -0.105724715 0.026084665 -0.011219239 -0.019904392 0.07856251
0.012053454 0.026898738 0.02801449 0.111240044 -0.11890536 -0.03249089 -0.12359053 -0.06419234
-0.08233089 -0.07515798 -0.1494351 0.03526999 0.08469158 -0.14047475 -0.11541242 -0.028337734
-0.1310927 -0.123732485 -0.06080726 -0.0016549623 -0.024315385 -0.06953882 0.09074871 -0.084073454
0.00073428184 -0.081738375 -0.09272182 0.005577549 -0.09819831 0.039575167 -0.07355461 -0.033848424
0.08816121 0.014821619 -0.1366479 -0.10251107 -0.09348092 -0.23705046 -0.0016744582 0.046265744
-0.10156334 0.10821485 0.031020414 -0.11410456 0.023777872 -0.05060002 0.026749093 -0.021227958
0.04076258 0.02078752 0.06879083 0.024232568 -0.08750127 -0.14021026 -0.15171576 -0.033609975
-0.0495982 -0.025426762 -0.037121817 -0.04933755 0.0031025473 0.05971098 -0.054967266 0.03600861
-0.0473048 -0.004964676 -0.04703403 -0.12386942 -0.029905654 -0.0007489314 -0.13863303 0.05457932
0.058902204 -0.052292123 0.07261069 -0.16309185 -0.09666569 -0.038500644 0.06575048 -0.039964024
-0.035374302 0.08857848 0.037912287 -0.01642068 -0.04214735 -0.13013503 -0.09630509 -0.08090037
-0.030838896 -0.038831674 -0.0671021 -0.09877636 -0.089900404 -0.087560005 -0.005517731 0.018274276
-0.10348294 -0.12612489 -0.030894618 0.022517746 -0.031976268 -0.036619544 -0.026253741 -0.085584186
0.035819978 -0.12248846 -0.05310525 -0.0742857 -0.0753436 0.03676655 0.07189217 -0.06465841
-0.098253675 -0.07048244 0.0355516 -0.06174432 -0.10212377 -0.053070877 0.022466876 -0.08305058
00000000: c219 6d3d f25f e4bd 3b2a adbd ca40 c0bd
00000010: da09 5abb 324c 48bc 5b30 f5bd 881a 6cbe
00000020: 6ba0 6d3e c8ad dd3d 6c92 243d 3c74 ccbe
00000030: b668 773e e0b2 b3bd 2799 afbd b0d3 68bc
00000040: 7ee1 56bd 22f3 d83d af63 91be 1d58 253d
00000050: 6a7b 85bd ecd9 81bd 8ed4 b03b fe4e 033e
00000060: 503a edbd 694a 4a3d fd44 c9be c5a0 423d
00000070: 64b3 5bbc 03db 51bd 7825 a6bd 1513 6c3e
00000080: 2b07 ccbd e7b1 99be 1e7b c2bd 5302 ff3c
00000090: e723 79be a503 cf3d 0284 b3be c07f a73c
000000a0: f880 26bb 527e 0abe 5d91 493e 22ae 03be
000000b0: 74e7 3e3e 4aae 83be c571 053d 80d0 2fbd
000000c0: 8fc8 03be 394f 623d c6f2 23be 57f6 c5bd
000000d0: abf4 b93d 1e98 a23d bb50 29be 1149 6abb
000000e0: 8786 14bd 6f72 bebb 5140 ee3d 1ea0 48be
000000f0: 7a72 34bd 8589 a93c bcfb f03d 138c 203d
00000100: 5d2b 113e b7fa 0ebf 2fa0 0dbb c93d 3fbe
00000110: 5028 4ebc 9dc0 353e b7d3 cebd afa0 303d
00000120: ba04 0a3e b4f9 28bd bf81 5a3e 9550 123e
00000130: 92f8 e4bd 1a6c 253d 73cb 22be eada 25be
00000140: 997e d8bb 84a8 81bf e368 8cbc 7189 24bf
00000150: 6fad d03e 8d33 21be ab97 c8bd 3768 b43c
00000160: b3df a53c 5d83 0e3b a14a 3cbf 88f4 babe
00000170: e6bb 023e 30b1 8d3d 3097 90be e76a d0bc
00000180: 6f26 0ebf 37f9 793e b9d9 1fbe ba8c e0bd
00000190: 119e 90be 964e 0c3d 11e4 9a3c 4a6e 36bc
000001a0: 917b e0bd 2919 3bbd e0c2 113e ece0 053e
000001b0: ec0b 803d 3e81 143d fb5b 35bd 95a4 8f3e
000001c0: 663b 01bc e5fa babd 4cf9 a7bd 616a f6bd
000001d0: fb3f 573d 44c9 203c cf69 9ebd 4500 94be
000001e0: c530 5a3d 8ad7 a43d dacf 853d d44c fbbd
000001f0: d728 003e 57f5 243d 33d0 7b3d fde7 4a3d
00000200: 5bc7 08bd 7d25 9d3d 8ef9 003e 3386 d8bd
00000210: 82af d53c e6d0 37bc 890e a3bc 62e5 a03d
00000220: da7b 453c be5a dc3c a57e e53c d2d1 e33d
00000230: a784 f3bd 2b15 05bd 081d fdbd 4677 83bd
00000240: 199d a8bd 6dec 99bd 8405 19be 4477 103d
00000250: c772 ad3d 9dd8 0fbe 595d ecbd 8924 e8bc
00000260: 2a3d 06be 7567 fdbd 0911 79bd 52eb d8ba
00000270: 0f31 c7bc 5e6a 8ebd 76da b93d b42e acbd
00000280: d27c 403a 7366 a7bd f0e4 bdbd dfc3 b63b
00000290: 321c c9bd 9219 223d cda3 96bd a5a4 0abd
000002a0: dd8d b43d 60d6 723c 6ded 0bbe 53f1 d1bd
000002b0: ed72 bfbd 5bbd 72be 7e79 dbba 2681 3d3d
000002c0: 7100 d0bd bf9f dd3d 861e fe3c a7af e9bd
000002d0: d0c9 c23c f741 4fbd ea20 db3c 41e6 adbc
000002e0: aaf6 263d 974a aa3c 35e2 8c3d 6183 c63c
000002f0: de33 b3bd 4793 0fbe 605b 1bbe 9daa 09bd
00000300: 7b27 4bbd c94b d0bc 0c0d 18bd 2c16 4abd
00000310: 1b54 4b3b 8093 743d 5b25 61bd c47d 133d
00000320: aec2 41bd b9ae a2bb c1a6 40bd 40af fdbd
00000330: b4fc f4bc ef53 44ba d1f5 0dbe 918e 5f3d
00000340: 7043 713d 4430 56bd eab4 943d 8d01 27be
00000350: a9f8 c5bd dab2 1dbd 30a8 863d 51b1 23bd
00000360: a5e4 10bd a268 b53d ea49 1b3d a984 86bc
00000370: b3a2 2cbd 1e42 05be 9a3b c5bd 18af a5bd
00000380: daa1 fcbc f60d 1fbd d36c 89bd 434b cabd
00000390: b41d b8bd a952 b3bd 15ce b4bb efb3 953c
000003a0: ddee d3bd e226 01be b616 fdbc 2377 b83c
000003b0: 8cf9 02bd 60fe 15bd 1612 d7bc c346 afbd
000003c0: f8b7 123d 3bdb fabd e484 59bd 1a23 98bd
000003d0: bf4d 9abd 8698 163d 343c 933d a16b 84bd
000003e0: 3939 c9bd 1959 90bd 8e9e 113d 9de7 7cbd
000003f0: 4426 d1bd d960 59bd 740c b83c 6c16 aabd

net.2.bias f4 [64]
-0.067875214 -0.06121263 0.17990799 -0.06151136 -0.17781837 0.09221848 -0.087176085 0.04046666
-0.0703471 -0.006408562 0.02987443 -0.12212741 0.116393216 -0.089339435 -0.053073365 -0.36453405
0.24699195 0.26355785 -0.32380107 -0.010828155 0.022195684 0.060049925 -0.01985192 -0.33413103
-0.059738375 0.15795569 -0.13992049 -0.030271176 -0.0888707 -0.0026929989 -0.39476293 0.14158024
0.13760222 -0.10812702 0.11067172 0.0028868963 -0.08900246 0.08220913 -0.035407797 -0.0115069
0.10037365 -0.096165106 0.103560634 0.09762963 -0.02771188 0.079245664 -0.10066237 -0.0141816605
0.06181226 -0.0810336 -0.044899177 -0.17963387 -0.10977342 -0.09646169 -0.08893733 -0.11452163
0.008157769 -0.23710246 0.10054323 -0.10813159 -0.0035681017 0.03326063 -0.06476914 0.23939517
00000000: 2902 8bbd 18ba 7abd cd39 383e 56f3 7bbd
00000010: 0516 36be 0bdd bc3d 6089 b2bd 5ec0 253d
00000020: 2412 90bd eafe d1bb 38bb f43c ef1d fabd
00000030: 915f ee3d 98f7 b6bd 7563 59bd 35a4 babe
00000040: 75eb 7c3e 0ef1 863e 41c9 a5be 9368 31bc
00000050: b9d3 b53c e9f6 753d 7ea0 a2bc 3913 abbe
00000060: 3ab0 74bd 23bf 213e 5147 0fbe 42fb f7bc
00000070: d701 b6bd 067d 30bb 5e1e cabe 69fa 103e
00000080: 99e7 0c3e b371 ddbd dba7 e23d 1532 3d3b
00000090: ec46 b6bd 435d a83d c407 11bd 7087 3cbc
000000a0: b390 cd3d 36f2 c4bd 9917 d43d 0bf2 c73d
000000b0: 0604 e3bc 8d4b a23d 1328 cebd 325a 68bc
000000c0: da2e 7d3d f2f4 a5bd 33e8 37bd f1f1 37be
000000d0: e3d0 e0bd b58d c5bd c624 b6bd 518a eabd
000000e0: 2aa8 053c fdca 72be 9ce9 cd3d 1874 ddbd
000000f0: d0d6 69bb 4c3c 083d afa5 84bd 0224 753e

coord_head.weight f4 [2, 64]
-0.12744257 -0.006696764 -7.893852e-05 0.0018396147 0.028134689 0.081761725 0.029141027 0.002604955
0.026461579 0.03334429 -0.011232863 -0.06288371 -0.00817015 -0.042517055 0.014257804 -0.014329141
0.04027996 0.19119294 0.24749713 0.03828936 -0.031541284 -0.094713464 -0.0045334417 0.2243912
0.016309952 -0.06813206 -0.06477951 -0.0035911617 -0.05704074 0.009531639 -0.0044289012 0.035124574
-0.07542618 -0.071925625 0.072967045 0.026638206 0.032853194 -0.024995316 -0.006618447 0.06994451
0.16471125 -0.0053005856 0.18367033 0.018393224 -0.017328404 0.03948392 0.047730394 0.05750132
0.021682752 -0.070655465 -0.1663757 0.007596348 0.11168461 -0.062277563 -0.06765364 -0.109070405
-0.07363096 0.0740578 0.22387277 -0.049778596 -0.1774995 0.07286899 -0.1582603 0.05502868
-0.18281072 0.00090133544 0.03551389 -0.0038408004 -0.019114656 -0.14702708 -0.09658132 -0.016637156
-0.059672665 0.0037238628 -0.0077490294 -0.0101978155 -0.09371157 -0.011660399 0.018115299 -0.010846132
0.04395668 0.019936647 -0.111152396 0.12071828 0.25922012 -0.08193683 0.06712874 -0.22795428
-0.06495287 0.1831636 0.026663316 -0.030320942 -0.032637905 -0.033973638 -0.066034906 0.0903642
0.12071103 0.011412678 0.21894315 -0.1094921 0.017024249 0.033845704 0.043365657 -0.053433787
-0.0021931832 -0.00023555134 -0.008684932 0.004111461 0.057898268 0.031158855 0.057938445 -0.20291999
0.031391513 -0.0010482122 0.0034426383 -0.08831656 -0.036561634 -0.08166734 0.020876883 0.08663722
-0.012492422 -0.15539585 0.17428857 -0.102447614 0.06874246 -0.07192433 -0.03412663 0.18233171
00000000: 4e80 02be 8770 dbbb cc8b a5b8 3a1f f13a
00000010: b87a e63c b172 a73d 2ab9 ee3c e5b7 2a3b
00000020: f4c5 d83c 0694 083d 0b0a 38bc 2dc9 80bd
00000030: 18dc 05bc 5d26 2ebd 9099 693c c6c4 6abc
00000040: 99fc 243d 15c8 433e e36f 7d3e 4ed5 1c3d
00000050: 6f31 01bd 22f9 c1bd 448d 94bb cfc6 653e
00000060: 739c 853c d288 8bbd 1fab 84bd b259 6bbb
00000070: 8da3 69bd 972a 1c3c 5120 91bb c9de 0f3d
00000080: 0b79 9abd be4d 93bd bf6f 953d 5e38 da3c
00000090: 1291 063d fac2 ccbc 8fdf d8bb 113f 8f3d
000000a0: 11aa 283e 89b0 adbb 1314 3c3e 63ad 963c
000000b0: 4cf4 8dbc e4b9 213d f280 433d 8186 6b3d
000000c0: 07a0 b13c d0b3 90bd 645e 2abe c9ea f83b
000000d0: e7ba e43d c216 7fbd fe8d 8abd 4e60 dfbd
000000e0: d4cb 96bd 9eab 973d e73e 653e a4e4 4bbd
000000f0: 6ec2 35be 563c 953d fd0e 22be c165 613d
00000100: bc32 3bbe 9947 6c3a 0377 113d f0b5 7bbb
00000110: 5796 9cbc 448e 16be 6dcc c5bd a54a 88bc
00000120: 536b 74bd 0d0c 743b 92eb fdbb bd14 27bc
00000130: daeb bfbd 420b 3fbc 8966 943c fab3 31bc
00000140: eb0b 343d 2e52 a33c dea3 e3bd 253b f73d
00000150: 80b8 843e 7fce a7bd cb7a 893d d96c 69be
00000160: 0306 85bd 3d8f 3b3e 076d da3c a063 f8bc
00000170: 53af 05bd f127 0bbd 4f3d 87bd de10 b93d
00000180: 5837 f73d 3efc 3a3c a232 603e 653d e0bd
00000190: 7076 8b3c cba1 0a3d 30a0 313d 63dd 5abd
000001a0: 82bb 0fbb 55fe 76b9 3f4b 0ebc 6fb9 863b
000001b0: bc26 6d3d db40 ff3c dd50 6d3d 42ca 4fbe
000001c0: 6394 003d 2a64 89ba e39d 613b 50df b4bd
000001d0: a7c1 15bd 3541 a7bd ff05 ab3c db6e b13d
000001e0: 04ad 4cbc 1720 1fbe b478 323e 0ed0 d1bd
000001f0: d9c8 8c3d 104d 93bd 5dc8 0bbd 2ab5 3a3e

coord_head.bias f4 [2]
0.19791412 0.41365895
00000000: 00aa 4a3e 1bcb d33e
