outputs/checkpoints_v2/mlp_real_gps_scaled_v2.pth (torch, 55390 bytes, 6 tensors)

net.0.weight f4 [128, 36]
000000 5f 85 44 3d 2b da ba be 40 29 51 bd 8a a5 54 bd
       0.047978755 -0.36494574 -0.05106473 -0.051915683
000010 78 fe fd 3b ed a6 83 bd e1 4b 93 3d cf 0d b8 bc
       0.0077512823 -0.06428323 0.07192207 -0.022467522
000020 35 03 b2 3c c0 56 b5 bc 01 11 31 3d bf 84 13 bd
       0.021730045 -0.022136092 0.043229107 -0.03601527
000030 ae 24 88 bc 5b 8c ae 3d 4a 68 60 bd f5 4e e2 bd
       -0.016619053 0.085228644 -0.054786958 -0.11050216
000040 39 2b 5a 3d c2 a5 ab bd 3b b7 0b bd a6 e3 95 3d
       0.053263877 -0.08381225 -0.03411029 0.07318811
000050 73 53 15 be 8c 97 24 be 44 bf 39 3e 1f 43 8f bc
       -0.14582615 -0.16073436 0.18139368 -0.01748806
000060 11 23 34 3d 28 5a 9a bd 51 bf 23 bd 51 1b 40 bb
       0.043978754 -0.07536727 -0.039977375 -0.0029313157
000070 21 bb 2d 3e ca 24 ad 3d 35 5d 3f 3c 53 7e 4d be
       0.16965915 0.084542826 0.011679937 -0.2006772
000080 1d 66 bf bd 2c 99 ce 3d 6b 99 2c bd 59 9f 52 3d
       -0.093456484 0.10087809 -0.0421385 0.051421497
000090 40 8f e1 3d ac a7 62 3e de a3 52 bd 4b 79 0e bc
       0.11013651 0.22134274 -0.051425807 -0.008695911
0000a0 ce 44 d8 bc 05 f5 80 bd f2 57 0f be 0f 93 f0 bd
       -0.026399996 -0.06296734 -0.13998392 -0.11746799
0000b0 2a a2 bb bd bb dc a3 3c 06 ff fa 3d dd 58 8f 3d
       -0.0916179 0.020002713 0.12255673 0.06999371
0000c0 e1 68 32 3d 6d 82 fe 3c a3 f9 7b bd 7a a5 e4 3d
       0.04355705 0.031068051 -0.06151737 0.11164375
0000d0 08 60 ad bc 07 c0 ff 3c 8a e2 9b bd 37 aa 55 bd
       -0.021163955 0.031219495 -0.07611568 -0.052164283
0000e0 d0 7a 01 be e8 45 f0 3d 9a 1f 32 be 04 09 1e bc
       -0.12644506 0.117320836 -0.17394868 -0.009645704
0000f0 c7 4f 62 3e 9a d2 ca bd 92 c2 bd bd 29 82 c9 3d
       0.22100745 -0.0990345 -0.09265627 0.09839279
000100 dc bd 3d be be 33 84 bd ba c1 ad 3d bf a7 48 3e
       -0.18529457 -0.064551815 0.08484216 0.1959524
000110 0c f8 15 3d 43 a5 e8 bc 0f 9a 6b bd 67 4d e4 bc
       0.03661351 -0.028399115 -0.05751997 -0.02786894
000120 b1 39 73 be 72 e8 0f bf 75 93 dc 3d fe d4 9d 3b
       -0.23752476 -0.5621406 0.10770313 0.0048166504
000130 01 2b 70 bc fb 7a 99 bd 44 d1 14 3d 5c 62 30 3e
       -0.01465869 -0.0749416 0.036332384 0.17225021
000140 f7 cf 76 bd 96 99 d8 bd 1d 92 46 bc 44 99 ea bd
       -0.060256924 -0.10576169 -0.012119797 -0.11455014
000150 53 e6 6e bd ca 37 9d 3d 37 24 d1 3c bb 0c a2 3d
       -0.058325123 0.076766565 0.025529964 0.079125844
000160 f7 a4 0f 3d 9e f1 e1 bc f0 7f 02 3e 40 f0 67 bd
       0.035069432 -0.027581032 0.12744117 -0.056625605
000170 c9 8f d2 3d c0 36 23 bd 34 e9 58 3e cb f5 86 3d
       0.10281331 -0.039847136 0.2118271 0.0658985
000180 73 6b 4c 3e 7b 8a 82 3d 9c a6 03 be f2 85 81 bd
       0.19962864 0.06374069 -0.12856525 -0.06324376
000190 55 c2 e5 bd f9 72 14 3d f9 f0 c3 bd 0c ff 95 3d
       -0.112187065 0.03624246 -0.09567446 0.07324037
0001a0 bc aa 1b bd 48 1a 40 3d 8e 93 bf bd bc 0f 0c be
       -0.038004622 0.046900064 -0.09354316 -0.13677877
0001b0 57 28 f3 bd 6c c3 c7 bc 20 5f 4d 3d bc 2f 57 be
       -0.118729286 -0.024385177 0.050139546 -0.21014303
0001c0 0d dc 12 be 26 64 d7 bd 8a a7 08 be 1b 74 a0 3d
       -0.14341755 -0.10517149 -0.13345161 0.07834645
0001d0 4b af 22 be 55 b6 29 be 35 52 7d 3d 29 d6 10 be
       -0.15887181 -0.1657346 0.061845977 -0.14144196
0001e0 4a 74 60 39 46 5a d3 bb c3 4c bc 3c 02 0a 8b bd
       0.00021405626 -0.0064499704 0.022985822 -0.06789018
0001f0 e4 4a 61 3d f3 01 b4 bc 30 d6 88 3e 81 55 c9 bd
       0.055003062 -0.021973586 0.26725912 -0.09830762
000200 f5 b3 8d bd 72 92 42 3e 65 54 86 be 7a d6 80 3d
       -0.0691909 0.19001177 -0.26236263 0.06290908
000210 f7 1d ab 3d bc ce e8 3c 5e be f7 bd 4f ae dc 3d
       0.08355325 0.028418891 -0.120968565 0.10775434
000220 c8 76 d5 3d 6e cb 08 be 4d d3 ad 3d 42 b2 e1 bd
       0.10423046 -0.13358852 0.08487568 -0.11020328
000230 33 2d 25 be 2d 7d 12 3e 51 cc f0 3d 05 89 8e bd
       -0.16130523 0.14305563 0.1175772 -0.06959728
000240 2b a4 a9 be 2f 06 db 3e 00 fb 72 bd 1e e4 64 bd
       -0.33133063 0.42778155 -0.059321404 -0.055881612
000250 7d 47 0d be eb 81 de bc 96 d4 57 bd f3 6c 13 be
       -0.13796802 -0.02716156 -0.052692972 -0.1439703
000260 0e 9e 40 3e 0a 7e 37 3e e6 2e 67 3d dd 7a 49 3d
       0.18810293 0.17919174 0.05644121 0.049189437
000270 20 16 95 bd 2e ad 2b bd aa 48 f1 bd e7 95 21 bd
       -0.07279611 -0.041913204 -0.11781438 -0.0394496
000280 08 07 c8 bd c3 1f 9a 3d a2 f8 00 3d dd f0 8e 3e
       -0.09766966 0.07525589 0.031487115 0.2791814
000290 50 74 cd bd 43 d5 23 3d 3e 50 4c 3e f2 d0 aa bd
       -0.100319505 0.039998304 0.19952485 -0.083406344
0002a0 3e dd 4a be d0 89 5a be 96 17 2b bc c8 05 00 3e
       -0.1981096 -0.21341634 -0.010442635 0.12502205
0002b0 5a 27 80 bb bb 20 00 3e cc 1e 84 3c 3d 6f 1f 3e
       -0.003910941 0.12512486 0.016127966 0.15569778
0002c0 99 bc 7a bd 6c 72 90 3d 10 c3 37 bd 69 ea b0 bd
       -0.061215017 0.07053074 -0.04486376 -0.0863846
0002d0 4d ef 04 3e d2 2b a7 bc dc 7b 17 3e a4 70 f5 bd
       0.12981911 -0.020406637 0.14793342 -0.11984375
0002e0 f3 7b 68 3e 60 c0 2f be 59 78 f3 bd e7 98 34 bc
       0.22703533 -0.17163229 -0.11888189 -0.011022783
0002f0 51 b2 27 3e fb 33 05 be d3 df e2 bb b6 74 cf bc
       0.16376616 -0.1300811 -0.0069236546 -0.025324207
000300 fe fe b9 bd 33 e1 f3 bd 56 69 50 bd 51 e4 3d be
       -0.09081839 -0.11908188 -0.050881706 -0.18544127
000310 a4 0d 90 3d fb cc 31 bd 11 71 a5 bd 5d 48 08 be
       0.07033852 -0.043408375 -0.08078206 -0.13308854
000320 ec 46 c5 3d 71 6d 3e bd 53 51 80 bd 55 b2 ce 3d
       0.09632668 -0.04649109 -0.06265511 0.10092608
000330 a6 b2 10 3e 7d bc 66 bc 6f f4 1b 3e 50 ae d4 3d
       0.14130649 -0.014083025 0.15229963 0.1038481
000340 9b 86 43 be 24 63 f1 3d 28 3b a4 3d ce 4c 5e bd
       -0.19094317 0.11786488 0.08019096 -0.054272465
000350 52 38 4b 3d dc d9 07 be 29 40 b5 bc 22 85 7d bd
       0.049614258 -0.132667 -0.02212532 -0.061894543
000360 52 04 7a 3d 48 fe fa 3d 83 22 6b bd 1c d3 5a be
       0.061039276 0.122555315 -0.05740596 -0.21369594
000370 ae 8f 71 bb 74 cc 29 be 7a e8 1b 3e 70 1e 93 bd
       -0.0036859321 -0.16581899 0.15225402 -0.0718354
000380 42 05 07 3e d9 cc 3b bc 1e a4 9e 3c c5 2e 2e 3e
       0.131856 -0.011462414 0.019365367 0.17010029
000390 49 80 4a be aa 3f 0e be 1f 23 10 bd e5 89 7c bd
       -0.197755 -0.13891473 -0.035189744 -0.061654944
0003a0 2f 89 d5 3c 8f e9 b2 bc 31 e6 89 3e 68 52 6f be
       0.02606639 -0.021839885 0.26933435 -0.23371279
0003b0 6b 5a 31 bd d9 ca 9d 3d 07 6f d0 bc ee 24 55 3e
       -0.04329912 0.07704706 -0.025443567 0.20814869
0003c0 fa 2a bc 3c 2e 0c 12 3e a4 6c 26 3e a6 65 3c 3d
       0.022969712 0.14262459 0.1625238 0.045995377
0003d0 8e c6 14 be ed 74 7b 3c 34 69 13 bc 5a 89 bd bd
       -0.14528868 0.0153477015 -0.00899725 -0.09254713
0003e0 2c f4 b1 bd 7b 25 af bc 67 b6 82 bd 41 dd 24 3c
       -0.0868915 -0.021380177 -0.06382447 0.010062517
0003f0 80 33 94 3e 69 13 25 bd e4 fb ea 3c a8 d5 eb 3c
       0.2894554 -0.040301714 0.028684564 0.028788403

net.0.bias f4 [128]
000000 af 8c 9b be af be a6 bd 56 f3 8e be 48 64 87 b8
       -0.3038077 -0.08141839 -0.27920026 -6.4559805e-05
000010 11 3b 26 bb 8f 32 89 ba c6 02 34 be 8d 1f 84 bd
       -0.0025364796 -0.0010467338 -0.17579183 -0.0645133
000020 7a 37 c1 bd 18 89 20 3e 78 ad fb 3d 20 ad 96 bd
       -0.094344094 0.15677297 0.12288946 -0.0735724
000030 7c a6 43 3d ff 91 78 be 51 d4 3a bb a0 79 c2 3c
       0.047766194 -0.24274443 -0.0028507898 0.023739636
000040 a5 b7 9b bc 8a 9d 0e 3c 2b 3c 89 3d 15 f2 5e 3d
       -0.019008467 0.008704552 0.06700929 0.054430086
000050 98 2b 27 be 74 2a 1a 3e 46 2c 8d be b3 47 26 3e
       -0.16325223 0.15055257 -0.2757284 0.16238289
000060 0e 29 36 be 26 64 85 be 3c 53 bd 3d 55 d4 14 3d
       -0.17789099 -0.2605297 0.09244391 0.036335308
000070 93 32 1b 3e d5 80 d0 3b 06 b7 60 3e 89 ff 14 3d
       0.15156011 0.006363014 0.21944818 0.03637651
000080 69 ff f2 3d 2f 40 ad bc 18 15 49 be 43 76 17 be
       0.11865122 -0.02114877 -0.19636953 -0.14791207
000090 03 0f b5 3d 82 84 06 be df 78 83 3d 68 db 7b bd
       0.08840754 -0.13136485 0.06419539 -0.06148854
0000a0 9d 9e 94 3d 2a b0 99 bc b9 ad 46 be d7 4f 4c bc
       0.072568156 -0.01876076 -0.19402207 -0.012470207
0000b0 e9 a5 12 be 8e ba 31 be fb 65 04 3e 9d d3 4a be
       -0.14321102 -0.17356321 0.12929527 -0.19807287
0000c0 2a 6e 54 bd 7e 3a ce 3d f3 bc d0 bc c1 df 1e 3e
       -0.051862873 0.1006975 -0.025480723 0.15515043
0000d0 c8 c9 bc bc d8 91 f4 bd e9 b6 b5 3d d0 3a 6a be
       -0.023045436 -0.1194188 0.08872778 -0.22873998
0000e0 9c 7d e1 bd 39 47 42 be 6f e5 b0 3c f0 b1 88 be
       -0.11010286 -0.18972482 0.021593777 -0.26698256
0000f0 8f 60 eb 3d e7 69 c7 bd 21 da e3 bb ae db c8 3c
       0.114930265 -0.09736996 -0.006953493 0.024518814
000100 0f d8 29 3e 93 d6 30 3d 58 f7 f4 be 51 a9 fa 3c
       0.16586326 0.043173384 -0.47844958 0.030598314
000110 80 f0 d5 bd 69 94 80 3d 04 3d 90 be 8b bb 42 bd
       -0.10446262 0.06278307 -0.2817155 -0.047542136
000120 a2 5f f6 bb ed be 17 be b7 4d bc bb 11 e4 e3 bd
       -0.0075187245 -0.14818926 -0.005746569 -0.111274846
000130 dd 72 1f bd 6e e0 56 bd 6a 34 7b be 84 ad 17 3e
       -0.0389279 -0.052460127 -0.24531713 0.14812285
000140 bc 90 00 3e fe 24 02 be 98 ca f5 bd 9e 34 38 3d
       0.12555212 -0.12709424 -0.12001532 0.044972055
000150 82 a1 d5 3c 57 21 d8 bd 14 98 08 bd a4 64 7c bd
       0.02607799 -0.10553234 -0.033348158 -0.061619416
000160 fa cd 8d 3d 12 86 37 3d a1 19 95 be 51 48 6b be
       0.069240525 0.044805594 -0.29121116 -0.22976805
000170 e5 9e 1a 3e 12 4b 03 3d 2c b0 a2 bd 7f e9 cd 3d
       0.15099676 0.032054015 -0.07943758 0.100543015
000180 9b c6 39 be ed ff 26 be dc 13 0b 3e 5d 96 39 3c
       -0.18142168 -0.16308565 0.13581795 0.011327353
000190 38 93 3a ba c0 05 20 3c ee 51 eb bd e6 17 3e 3d
       -0.0007117274 0.009766996 -0.11490236 0.04640951
0001a0 17 ef d1 bd e4 39 e3 bd c2 2d 0b 3d d6 a0 bc 3b
       -0.10250681 -0.11095026 0.033979185 0.005756478
0001b0 0a 6a 00 3d a9 b0 35 be e9 9e 32 be e1 2d 87 bd
       0.031351127 -0.17743172 -0.17443432 -0.066005476
0001c0 f5 01 8c 3a ae 1a 3d bc 8e c8 4a be c9 0c 00 3e
       0.0010681736 -0.011542005 -0.19803068 0.12504877
0001d0 7c 81 07 3c 4e 08 2c be 75 9b 8b 3d 25 69 8d 3d
       0.008270618 -0.16800043 0.068167605 0.0690482
0001e0 0b 9b 74 3d 69 ff 83 bd 9e c0 ca bb d5 bc 3b be
       0.059718173 -0.064452 -0.0061875125 -0.18333752
0001f0 4b 53 07 3e ba 76 a4 3d 4a 04 c9 3d 11 84 00 be
       0.13215367 0.08030458 0.09815271 -0.1255038

net.2.weight f4 [64, 128]
000000 cc 5c a3 bd 4b 72 30 3d 93 ed 29 bd a7 9b 56 bd
       -0.07976684 0.04307775 -0.041486334 -0.052394535
000010 d1 2a b0 bd 28 1e a2 bd aa c9 22 bd f4 aa 75 3d
       -0.086019166 -0.07915908 -0.039743103 0.059977487
000020 7c e4 48 bd 5e 45 ba bd 5f 52 88 3d a4 14 8d 3c
       -0.049046025 -0.09095262 0.06656336 0.017221756
000030 c2 ac 7d bc fc e8 89 bd 1f 47 37 3d 86 e9 a8 bd
       -0.015483083 -0.06733891 0.04474556 -0.08247666
000040 9c db 3a 3d 6e 34 5a bd a2 18 5c 3d 4b 8a fc b7
       0.045619592 -0.053272657 0.05373443 -3.0105139e-05
000050 e3 b2 12 bd 3d 39 7f bd 18 c4 2f 3b 67 53 54 bd
       -0.03581513 -0.062310446 0.0026819762 -0.05183735
000060 b4 aa 57 bd ee 3b 37 bd f5 22 4a bc a0 af d7 bd
       -0.05265303 -0.044734888 -0.012337436 -0.10531545
000070 6b da b4 bd be e2 3f 3d c9 2e 83 bd 15 52 96 bd
       -0.088307224 0.046847098 -0.06405408 -0.07339875
000080 ec dd 23 bd 01 c7 6e bb e5 bb 4b 3d ab 60 cb bc
       -0.040006563 -0.0036434534 0.049739737 -0.024826368
000090 d2 0f 8a bc 6f 90 0a 3c e8 27 67 bd b2 93 c2 bd
       -0.016853247 0.008457287 -0.056434542 -0.09500827
0000a0 b4 76 a1 bc 7a 78 6e 3d 99 44 2a 3c 60 19 b1 bd
       -0.019709922 0.058220364 0.0103923315 -0.08647418
0000b0 b1 1d 23 bc 37 85 8e bd 4c 30 a4 3c 7d a0 5b 3d
       -0.009955809 -0.069590025 0.020042561 0.05361985
0000c0 ef d9 24 bb fb 36 93 bd 8b 8b 8e bd e8 a9 95 bd
       -0.0025154313 -0.07188221 -0.069602095 -0.07307798
0000d0 b0 5c 85 bd a8 76 4f 3d 3a 7b de bc 1b d7 82 bd
       -0.06511819 0.05065027 -0.027158368 -0.06388684
0000e0 d0 0e 55 3d cd 4e 49 3d 4e 7e ae 3a c6 dd 35 bd
       0.05201608 0.049147416 0.0013312788 -0.044400953
0000f0 cf c6 20 3c eb 14 7e bc 58 8d 1a 3d 22 0f 53 3d
       0.009813025 -0.015507917 0.037732452 0.051528104
000100 b1 15 9a bd 3c 97 fa bc 1f 81 36 3d ec 84 02 bd
       -0.075236686 -0.030589692 0.044556733 -0.031865045
000110 50 47 37 3d 1a f2 f7 39 fe df fa 3b 5a d6 3b 3d
       0.044745743 0.0004729189 0.0076560965 0.04585872
000120 c7 a7 2c 3d 22 60 05 bc 58 8f 4c bd af ce 4a bd
       0.042152192 -0.008140596 -0.04994139 -0.049513515
000130 72 d0 ea 3c 13 7e 5a bc a7 64 a5 3d 86 60 d9 bc
       0.028663848 -0.0133357225 0.080758385 -0.026535284
000140 5d 77 28 bc c0 9c a3 bd 6f 17 73 3d 8a bd 5f 3d
       -0.010282365 -0.07988882 0.05934852 0.054624118
000150 b3 b8 85 3c 8f 81 80 bd 41 2c 6b 3d 2f 2e 31 3c
       0.016323423 -0.06274711 0.05741525 0.010814234
000160 20 04 94 bc 20 52 1d bd 93 56 1d 3d 0f 1f 5a 3d
       -0.018068373 -0.0384084 0.03841264 0.053252276
000170 cc 9a 32 3d b3 05 1a 3d f5 6d e7 3b b5 0e a0 bd
       0.043604657 0.03760309 0.0070626684 -0.07815305
000180 df 37 cc bd 49 21 5e bd bc 1b 83 3d 9a 3b c8 3c
       -0.09971594 -0.054230962 0.06401774 0.024442483
000190 fb 93 f4 bc 7e b9 1b bc bd 07 b6 bd e6 99 4f 3d
       -0.029855719 -0.009504674 -0.08888195 0.05068388
0001a0 4e ec 1f 3d aa a7 02 3d 1f c7 76 bd fe 41 a1 bc
       0.039043717 0.03189818 -0.06024849 -0.019684788
0001b0 1a 7c d4 3b 3f 5f 91 bd a2 99 6e 3d 78 e8 15 3d
       0.0064845206 -0.07098245 0.058251984 0.036598653
0001c0 de f1 45 bd d3 d9 d5 3c 7c 79 92 bc e7 3f 3e bc
       -0.048326366 0.026104843 -0.017880194 -0.011611915
0001d0 4d 8c 64 bd 01 0e a5 bd 6b bf 4f 3c 8a bf b5 bd
       -0.055797864 -0.08059312 0.012679915 -0.08874424
0001e0 22 bf 0a bd e7 93 de bc 7b ed b2 bd 93 7e 5f 3d
       -0.033873685 -0.027170135 -0.08736702 0.05456407
0001f0 76 95 87 3d 56 fe c8 bd a2 d3 1e 3d 83 f3 3b bc
       0.06620304 -0.09814136 0.038776048 -0.011471632
000200 5d c5 4c 3d 04 fd 52 bd 26 e4 a4 bd 5b 5f f5 3c
       0.049992908 -0.051510826 -0.08051328 0.029952696
000210 37 7d a4 bd d6 e5 4a 3d a8 eb 33 3d 37 26 2e 3c
       -0.08031695 0.049535595 0.04392591 0.010629228
000220 f4 c0 3b bd b0 07 f0 3c bb 95 c2 bd ba 3c 97 3d
       -0.04583831 0.02930054 -0.09501215 0.073846295
000230 3a 64 84 bc 65 30 b0 3a 8d d8 91 3d 7d 12 4b 3d
       -0.016161073 0.0013442157 0.07121382 0.04957818
000240 79 81 1d bd 8e 96 ab bd c6 89 96 bd fd 97 2c bd
       -0.038453553 -0.083783254 -0.07350497 -0.042137135
000250 01 ea bf 3c 73 d1 48 3d 89 9d c0 bd 30 43 c5 3c
       0.023427011 0.04902787 -0.094050474 0.024079889
000260 e5 af 91 3d 38 89 65 3c ed 6d 80 bd 42 f7 f9 bc
       0.07113627 0.014009766 -0.06270967 -0.03051341
000270 13 ae 8c 3c 03 9e 43 bd ed 03 a9 bd cb c9 69 bc
       0.017172849 -0.047758114 -0.08252702 -0.014269303
000280 de 24 65 3d 8b 7b 0b 3c e8 36 88 bd 38 3e f6 3c
       0.055943362 0.008513342 -0.066510975 0.030058965
000290 76 55 17 bd 06 ad 56 3d 54 00 62 3c 3e b4 34 3c
       -0.036946736 0.0524111 0.013794024 0.011029301
0002a0 d2 ab 2b bd 0f 83 96 bd 98 f8 82 3d 2c c4 5b bd
       -0.041911907 -0.07349216 0.06395072 -0.05365388
0002b0 a3 96 e8 bc 02 49 11 3d 0d a0 e0 3c ef 5b 39 bd
       -0.028392142 0.035470016 0.027420068 -0.04525369
0002c0 09 a3 83 bd e9 da 53 bc 8d b2 ca bc dc 9f 45 3d
       -0.06427581 -0.01293061 -0.024743343 0.048248157
0002d0 15 4d 40 3d e3 9b 9a 3d 69 fe 2f 3d 02 7b 3d 3d
       0.04694851 0.07549264 0.042967234 0.046259888
0002e0 b2 91 2e 3d 5e b5 c3 bc af b4 43 3d 77 f8 be bb
       0.042619415 -0.023890194 0.047779735 -0.005827959
0002f0 ac ae ba 3b d9 97 18 bd 4b 69 26 3d db 48 a9 bd
       0.005697092 -0.03725419 0.04062776 -0.08265849
000300 3a a8 46 bd af b6 7a bd 91 f8 a6 bd 89 ca b5 bb
       -0.048500277 -0.061209377 -0.08152879 -0.0055478257
000310 c5 99 28 bd 3c 3a e9 bc 60 8a 8f bd df e8 81 3d
       -0.04116227 -0.028470151 -0.07008815 0.06343245
000320 29 00 f7 3c 13 82 b0 38 b3 a3 ba bd 09 25 02 bd
       0.030151444 8.416562e-05 -0.091132544 -0.0317736
000330 e6 c0 2e bd d8 31 07 3d d4 97 80 bc 0f 84 88 bd
       -0.04266443 0.03300652 -0.015697397 -0.06665813
000340 02 98 57 bd fe 93 be bd ff 9d c7 3c 40 a2 16 3d
       -0.0526352 -0.09305571 0.02436733 0.036775827
000350 4f 11 c5 bd 1f 57 58 3d ca 0c 92 bd ed dc ab bc
       -0.09622442 0.05281746 -0.071313456 -0.020979369
000360 bc 35 54 3d a8 d6 3d 3d 74 74 54 3c e3 e8 a9 bd
       0.051809058 0.04634729 0.012967218 -0.08296373
000370 0e d6 12 bc 7e ce 99 bd 4d fd 81 3d 44 d3 2f 3c
       -0.008962167 -0.075100884 0.063471414 0.010731522
000380 c7 e4 7f 3d 0b e1 4c bd c6 2e 90 bd 35 05 c5 bd
       0.06247404 -0.050019305 -0.07040171 -0.09620134
000390 22 7a 30 bd 7c 47 94 bd 45 61 64 bd 58 c9 41 bd
       -0.043085225 -0.07240197 -0.055756826 -0.047311157
0003a0 84 91 83 3c ca 34 42 3d 80 a5 5c bd 51 6f 30 3c
       0.016060598 0.047413625 -0.05386877 0.010768727
0003b0 5e cc cb 3c 97 22 47 3d e1 4c 82 bd 7c 5b 52 bd
       0.024877723 0.04861697 -0.0636232 -0.051356778
0003c0 a0 73 a4 bd 74 ce 73 bd ab 82 63 bd 07 31 35 bd
       -0.08029866 -0.05952306 -0.055544537 -0.04423621
0003d0 dd dc 1c 3d c2 a1 9a bd 5f 57 e3 3b 73 1e 99 bd
       0.03829657 -0.07550384 0.0069379057 -0.07476511
0003e0 38 08 8c bd 7c 27 30 3c e8 a0 ce bc 47 f5 95 bd
       -0.06837505 0.010751601 -0.02522321 -0.073221736
0003f0 1e 87 50 3c 05 75 2e 3d 77 1c ff 3c f1 6e c7 bd
       0.012727527 0.042592067 0.031141503 -0.09737957

net.2.bias f4 [64]
000000 85 42 95 3d 59 9d 0a bd 53 e9 e8 3c 8f 85 06 be
       0.07288078 -0.033841465 0.02843157 -0.13136886
000010 76 cf 0a be 33 5a 29 3e f6 70 a2 3d 78 15 91 bb
       -0.13555703 0.16538315 0.07931702 -0.004427608
000020 c4 ec 82 3d 4e 20 5f bd ff 08 c5 bd dd 22 03 bd
       0.06392816 -0.054474168 -0.096208565 -0.03201567
000030 b5 21 c3 3b e3 57 d8 bd 7c 7a 69 bd f8 38 96 3a
       0.005954946 -0.10563638 -0.057001576 0.001146107
000040 b3 ed 00 bc 34 6f a7 3c c9 df c6 3d 14 5b 66 bc
       -0.007869172 0.020438768 0.097106524 -0.014059801
000050 96 03 9a 3b 58 e4 26 bd 6f 11 23 3e 59 ed cf bd
       0.0047001345 -0.04074511 0.15924619 -0.10152692
000060 f4 9d 07 bd 96 98 dc bd 18 db 68 3d b4 90 8e 3d
       -0.03310962 -0.10771291 0.05684957 0.06961194
000070 cb 28 ad bd 2a 6a 0e 3e a6 2a bd 3c 42 6f 44 3d
       -0.08455046 0.13907686 0.023091625 0.047957666
000080 83 67 ff bc f5 51 04 3c 6e 40 d6 3c a6 f6 c1 3d
       -0.031177288 0.008076181 0.02615377 0.094708726
000090 d6 3e 0b 3e 19 ae 85 bd 84 62 49 bd 18 a8 a8 bc
       0.13598189 -0.06527347 -0.049166217 -0.020587966
0000a0 11 82 8a bd b2 e9 16 bc 31 49 86 bd 2a b9 93 3d
       -0.067630894 -0.009210991 -0.06556929 0.072130516
0000b0 79 55 09 3e f2 55 21 3d b2 65 8e 3d 41 96 b9 bd
       0.13411511 0.039388604 0.069529906 -0.09061862
0000c0 e6 85 b6 bb ab 08 ef 3d 0b f6 49 3c db 48 ec 3d
       -0.005570161 0.11671575 0.012326728 0.115373336
0000d0 c6 c8 9f bd 5d c3 0a 3d 79 f0 e8 bd 3b 90 71 bd
       -0.07801966 0.03387772 -0.113739915 -0.05897544
0000e0 b2 50 09 bd 85 1e 07 3e df 3f b0 3c 2a da 27 3d
       -0.033524223 0.13195236 0.021514831 0.04097954
0000f0 7b 8e b5 bb 2a c5 b3 3c 1d b4 a8 3d e5 e0 2b 3e
       -0.0055406666 0.021944601 0.08237479 0.16785009

coord_head.weight f4 [2, 64]
000000 73 4d 5d bd 5a e3 8b 3c 74 c7 ba 3c 66 c6 3b be
       -0.05402894 0.017076183 0.022800185 -0.18337402
000010 aa 6a f7 3d b8 c3 6f 3d 11 f7 21 be 02 e0 af 3d
       0.120808914 0.05853626 -0.15816905 0.08587648
000020 91 4a 94 3d 1c 3c da bd dc 33 c2 bd 5b 45 ba bd
       0.07240785 -0.10655996 -0.09482548 -0.0909526
000030 36 c9 63 bd fc 59 6a bd 4a 9c 77 39 36 4a 2d 3d
       -0.05561181 -0.057214722 0.00023613978 0.0423071
000040 63 af 13 3c 0d e7 f8 bc 09 a3 89 bd aa 3b 07 3e
       0.009013983 -0.030383611 -0.067205496 0.13206354
000050 4d 5c 0c 3c 9e 8c 26 3e 33 7f 9e 3d 27 df da bc
       0.008566928 0.16264579 0.07739105 -0.026717735
000060 aa ba e3 bd 0b ef 84 bc 4c e0 a2 3d d4 2f 99 3d
       -0.11119588 -0.016227266 0.079529375 0.074798256
000070 ec ba 0e be 40 47 92 3b 95 45 16 3e 92 2f 53 3c
       -0.13938493 0.00446406 0.14674981 0.01288976
000080 61 31 3d 3e 8a 44 a1 3d ca ee 21 bd 3d 01 92 3c
       0.18475868 0.07874401 -0.039534368 0.017822856
000090 9b dd 19 bd 17 d8 c0 3d eb 14 15 3e f9 8e 5b 3d
       -0.037564855 0.09416216 0.14558761 0.053603146
0000a0 19 80 78 3d 26 92 08 3d 44 53 7c bd 59 e4 63 3d
       0.06066904 0.033342503 -0.061602846 0.05563769
0000b0 22 57 cb 3c c1 37 71 be 78 a6 cf bc b2 10 00 bd
       0.024821822 -0.23556425 -0.025347933 -0.031265922
0000c0 a3 4e f1 3d ca a5 ec 3c 16 71 2f 3d 12 83 04 3d
       0.11782577 0.028887648 0.042832457 0.03235156
0000d0 ee 62 10 3e 6d e0 8c 3d 8e 5a c7 3c a6 14 9e bb
       0.14100239 0.06878743 0.024335172 -0.004824239
0000e0 7e 0f 2b be da 64 42 3c 36 82 c2 bc f8 c9 47 bc
       -0.16705129 0.011864865 -0.02374373 -0.012194149
0000f0 ea 28 74 3d 57 f6 0d bd 56 79 1b 3d 5c 01 a9 bc
       0.05960933 -0.034658756 0.03795751 -0.020630531
000100 a5 2e a5 bd 1b b5 9a bd 5d a4 68 3d 0e 4d ba be
       -0.08065537 -0.075540744 0.056797374 -0.36386913
000110 57 71 6d be 50 da 9d 3d 86 d1 e2 3d 11 54 73 3d
       -0.23187767 0.077076554 0.1107512 0.059406344
000120 b6 da 43 3d ff 97 84 bd d9 c7 16 be 07 63 50 bd
       0.047816 -0.064743035 -0.14724673 -0.05087569
000130 df b0 15 bb ed 99 94 bb ed ec df bd 4c 68 ec 3c
       -0.002284102 -0.004534951 -0.10933862 0.028858326
000140 a1 05 84 3b 51 04 68 3d 83 89 bc 3d 19 54 1b 3d
       0.0040289913 0.05664474 0.09205916 0.037922
000150 5d 73 25 3c 8d d8 2f bd 17 29 fa 3d 39 3a ee bc
       0.0100983055 -0.04293113 0.122148685 -0.029080497
000160 a4 ea d4 39 29 f6 0f be b1 82 31 3d 41 37 2c 3c
       0.00040610612 -0.14058746 0.043337528 0.01051122
000170 3d 42 3b bd 4a 47 c6 3c 4e bf 4b bd 43 b4 83 3d
       -0.045717467 0.024203915 -0.04974299 0.064308666
000180 e1 7d 02 3e e3 35 d4 bd 82 c0 80 bd 31 ea 26 3e
       0.12743331 -0.103618406 -0.06286718 0.16300274
000190 e3 30 a2 3d 1f 06 77 bd 9e 7e d1 bd cd 9e 70 be
       0.07919481 -0.060308572 -0.102292284 -0.23498078
0001a0 14 d1 9e bd 27 8d 89 3d 43 d8 17 bd 47 e7 9e 3c
       -0.07754722 0.06716376 -0.037071478 0.019397391
0001b0 e9 f5 87 3d 85 ff c3 3b 8a c0 86 3d 01 bc 8a bd
       0.066387005 0.005981388 0.06579693 -0.0677414
0001c0 9f 09 8f be 3a 71 1c 3c 30 9f f2 bd 09 eb 4b 3d
       -0.27937028 0.00954848 -0.11846769 0.049784694
0001d0 22 86 23 be 20 32 80 bd f6 3c 22 3d ea 95 e8 bd
       -0.15969136 -0.062595606 0.039608918 -0.11356719
0001e0 e4 62 88 bd 98 51 e8 3d 7d 75 91 bd 04 4d 2e 3c
       -0.06659487 0.11343688 -0.07102487 0.010638479
0001f0 19 ae 78 3c 76 db 10 be 06 6b 16 3c d5 f9 df 3d
       0.015178227 -0.14146218 0.00918079 0.109363236

coord_head.bias f4 [2]
000000 fb 28 0e 3e 3a e7 f4 3d
       0.1388282 0.119581655
