outputs/checkpoints_v2/mlp_real_gps_scaled_v2_ul.pth (torch, 57980 bytes, 6 tensors)

net.0.weight f4 [128, 41]
0	0x3e1a8f28	0.15093672
1	0xbd95bfda	-0.073119834
2	0xbe96d533	-0.29459533
3	0x3cbdbe72	0.0231621
4	0x3db29cd7	0.08721321
5	0xbdb934a5	-0.09043244
6	0x3cfa53e1	0.030557575
7	0x3d6c647a	0.05771301
8	0xbc742b63	-0.014902922
9	0x3e22f296	0.15912852
10	0x3db71b83	0.08940794
11	0xbd8dbaef	-0.069204204
12	0xbe2d10fe	-0.16901013
13	0xbe82ef65	-0.2557327
14	0xbdcbeef0	-0.09957683
15	0xbe217bf9	-0.15769948
16	0xbe7867ca	-0.24258342
17	0x3d80b2c0	0.06284094
18	0xbe8123f1	-0.25222734
19	0x3e942eef	0.28942057
20	0xbd158c4c	-0.03651075
21	0x3d17913a	0.037003733
22	0x3e1826ec	0.14858598
23	0x3e9c5aba	0.3053797
24	0xbdf1b2b7	-0.11801665
25	0xbda661bf	-0.08124112
26	0xbda5b5fa	-0.0809135
27	0x3de49cf0	0.11162746
28	0xbe0edc0f	-0.13951133
29	0xbbcfda15	-0.006343136
30	0x3d8ec6c5	0.06971506
31	0x3c88e465	0.01671047
32	0x3d829cb9	0.06377549
33	0xbe3db607	-0.18526469
34	0x3d4a1b4f	0.04934245
35	0x3ddc6a68	0.10762483
36	0xbcdb9d34	-0.026808359
37	0x3dbf20e6	0.09332447
38	0xbd05deab	-0.032683056
39	0x3d7166b1	0.058935825
40	0x3bea2abc	0.0071462076
41	0xbc4bd539	-0.012440973
42	0xbd50eb85	-0.05100586
43	0x3ed04e3e	0.40684694
44	0xbccb9d3c	-0.024855249
45	0xbe6676f2	-0.22506312
46	0xbd543910	-0.05181223
47	0x3da26a78	0.079304636
48	0x3b86378b	0.0040959767
49	0xbe2a33e2	-0.16621354
50	0xbdac018d	-0.08398733
51	0xbe1c5efb	-0.15270607
52	0xbdcc2008	-0.09967047
53	0x3c88d976	0.016705256
54	0x3ba1310a	0.004919176
55	0xbddb6fe9	-0.107147045
56	0x3d30782e	0.043083362
57	0xbca4229e	-0.020036038
58	0x3b1a81a1	0.00235758
59	0xbd967bb4	-0.07347813
60	0x3d6bcac4	0.05756642
61	0xbb27314b	-0.0025511559
62	0xbe124ac1	-0.14286329
63	0xbb3bc042	-0.002864853
64	0xbeaad44e	-0.333651
65	0xbddcd0b1	-0.10781992
66	0x3e52f6a7	0.20601903
67	0x3e079f94	0.13244468
68	0x3d1f5e7a	0.03890846
69	0xbd99cd6a	-0.07509883
70	0xbd310d76	-0.043225728
71	0xbd2fda4c	-0.042932793
72	0x3d5ae1f8	0.053438157
73	0xbc92ede3	-0.017935699
74	0xbd8861ee	-0.066593036
75	0x3d919c46	0.07109885
76	0xbdaf212d	-0.0855125
77	0x3cd0e6d0	0.025500685
78	0x3dd2ad12	0.10286917
79	0x3d2f72a3	0.042833935
80	0xbe3653c6	-0.17805395
81	0x3dce7474	0.100808054
82	0xbd8e41c3	-0.06946137
83	0x3d3c12cd	0.045916367
84	0x3e179a6e	0.14805004
85	0x3dbf5f68	0.09344369
86	0xbdc171bb	-0.094455205
87	0xbd9544eb	-0.07288536
88	0xbe131244	-0.14362437
89	0xb7fc95a5	-3.0110425e-05
90	0x3d18cdd8	0.037305683
91	0xbe0b3b3b	-0.13596813
92	0xbe0b9405	-0.13630684
93	0xbdbb85a4	-0.09156349
94	0x3e8453aa	0.2584508
95	0xbdcd5789	-0.10026462
96	0x3d062398	0.03274879
97	0xbcf4b388	-0.029870763
98	0xbe070887	-0.13186847
99	0xbb0d34cb	-0.002154636
100	0x3df50194	0.11963192
101	0xbe6b9082	-0.23004344
102	0xbd0311fa	-0.031999566
103	0xbe21e04f	-0.15808223
104	0xbd9fdb17	-0.0780546
105	0x3e063aa9	0.13108315
106	0xbd4b752e	-0.049672298
107	0x3c21041d	0.009827641
108	0xbe0cb428	-0.13740599
109	0xbe430fdf	-0.19049023
110	0x3e155f43	0.1458712
111	0xbd09674c	-0.033545777
112	0x3ce689d1	0.028141888
113	0xbd184d7a	-0.037183262
114	0x3dcc423a	0.09973569
115	0xbc7ed17d	-0.015552876
116	0x3dbbafb5	0.09164373
117	0xbd84888c	-0.06471357
118	0x3d51ca7e	0.051218502
119	0xbd215c79	-0.03939483
120	0x3de7ea23	0.11323955
121	0xbe45b0e4	-0.1930576
122	0x3d8dcf99	0.06924362
123	0xbe7551f3	-0.23957042
124	0xbe214d76	-0.15752205
125	0xbe832377	-0.25612995
126	0xbe79277b	-0.24331467
127	0xbdddff9c	-0.10839769
128	0xbc3ca347	-0.011513538
129	0xbd2427c2	-0.04007698
130	0xbde53f11	-0.111936696
131	0xbe258878	-0.1616534
132	0xbe713aa5	-0.23557527
133	0xbd3df37f	-0.046374794
134	0x3bfabcad	0.0076518864
135	0xbd5a1683	-0.053244125
136	0x3d4579b3	0.048211765
137	0xbc97bbba	-0.018522132
138	0x3d74bf44	0.059752718
139	0x3dbb314a	0.091402605
140	0x3e22c901	0.1589699
141	0xbc0a7df5	-0.008452882
142	0xbd4ecf49	-0.05049065
143	0xbd2fd1e1	-0.042924765
144	0xbdbb37c2	-0.09141494
145	0xbe2ce44e	-0.16883966
146	0xbe78d14d	-0.24298592
147	0xbd8de32f	-0.069280975
148	0xbe041922	-0.12900212
149	0xbe54e398	-0.20789945
150	0xba80fc42	-0.0009840804
151	0xbd9cbe62	-0.076535
152	0xbe301dd2	-0.17198876
153	0xbe4c793c	-0.19968122
154	0xbe6b92f0	-0.23005271
155	0xbc7a9431	-0.015294121
156	0xbd1516fd	-0.036398876
157	0xbdd63d87	-0.10460954
158	0xbc78d160	-0.015186638
159	0xbddf9882	-0.109177604
160	0xbe0d664d	-0.13808556
161	0xbd9f5b7c	-0.07781121
162	0xbc1bdf0a	-0.009513626
163	0xbd646b12	-0.055766173
164	0xbd01858f	-0.031621512
165	0x3e12a655	0.14321263
166	0xbe66b40d	-0.22529621
167	0x3c7828c9	0.015146443
168	0x3e095b24	0.13413674
169	0xbcb07975	-0.02154229
170	0xbdd21d53	-0.102594994
171	0xbbf9873b	-0.0076149977
172	0x3dcac71b	0.099012576
173	0x3dc06903	0.093950294
174	0xbe329070	-0.17437911
175	0x3de25b47	0.11052566
176	0xbe967019	-0.293824
177	0x3db98dd9	0.090602584
178	0x3da6a993	0.081378125
179	0x3c822d54	0.015890755
180	0xbe2316cb	-0.15926664
181	0x3d062d06	0.03275778
182	0xbd795736	-0.060874186
183	0x3d5a282d	0.05326097
184	0xbc9a34ab	-0.018823942
185	0xbcc36ff7	-0.0238571
186	0x3cdfbaee	0.027310815
187	0x3da0c963	0.078509115
188	0x3e18b59c	0.14913028
189	0x3d735f2b	0.05941693
190	0x3e271a0a	0.16318527
191	0x3c86718c	0.016411565
192	0xbe30ea34	-0.17276841
193	0xbddef48a	-0.10886486
194	0xbd110e34	-0.035413936
195	0xbdfb7986	-0.12279038
196	0x3e2dc246	0.1696864
197	0xbb66b58f	-0.0035203432
198	0xbe02da14	-0.12778503
199	0x3e1ed504	0.15510947
200	0x3cb8ae57	0.02254407
201	0x3cb03a87	0.021512283
202	0xbdd538d7	-0.10411232
203	0x3ac04d62	0.0014671499
204	0x3c82caef	0.015965907
205	0xbd3d2782	-0.046180256
206	0xbcfd7395	-0.030938903
207	0x3ee9270f	0.45537612
208	0x3bee5f1e	0.0072745224
209	0x3dcd971f	0.1003859
210	0xbcecd39c	-0.028909497
211	0x3c1d4a2f	0.009600206
212	0xbc32d197	-0.010914228
213	0xbe8cfc69	-0.27536324
214	0xbc46f52f	-0.012143417
215	0xbd0d4918	-0.034493536
216	0xbc884224	-0.0166331
217	0xbe30ee50	-0.17278409
218	0x3d7b928a	0.061419047
219	0xbdbd2b59	-0.092367835
220	0xbbfaf866	-0.007659006
221	0xbd24d98d	-0.040246535
222	0xbbc1a7d4	-0.0059098992
223	0x3d447698	0.047964662
224	0xbdf51848	-0.11967522
225	0xbb3dc51c	-0.0028956598
226	0xbdc180d3	-0.094483994
227	0x3c7d4e4c	0.015460562
228	0x3e80c7ee	0.25152534
229	0xbdce33d9	-0.10068483
230	0x3d72965e	0.059225433
231	0x3e0e6a22	0.13907674
232	0xbca9e398	-0.020738408
233	0xbe27fff2	-0.16406229
234	0xbe34640e	-0.17616293
235	0xbdfc7883	-0.12327673
236	0x3d5dfff3	0.05419917
237	0xbe04a949	-0.12955202
238	0x3bef4178	0.0073015057
239	0xbc43a60c	-0.011941444
240	0x3d948971	0.07252777
241	0xbe088d2e	-0.13335106
242	0xbd224a45	-0.03962161
243	0x3cbbc66e	0.022921767
244	0x3d4645c6	0.048406385
245	0xbd8f7888	-0.070054114
246	0xbb5f6ce6	-0.0034092008
247	0x3d13e9b6	0.036111556
248	0x3e811c60	0.2521696
249	0xbe39c543	-0.18141656
250	0xbddc7359	-0.10764188
251	0xbde014b8	-0.10941452
252	0xbd5f2a7f	-0.054483887
253	0x3dbde3cd	0.09271965
254	0xbe101fdb	-0.14074652
255	0xbd1bbbad	-0.03802078

net.0.bias f4 [128]
0	0xbea6015c	-0.32422912
1	0xbedbffd1	-0.4296861
2	0xbeee7942	-0.46576887
3	0x3bf97b4a	0.007613574
4	0xbeaa0508	-0.33206964
5	0xbe2234e1	-0.15840484
6	0xbea8fbd4	-0.3300463
7	0xbe8fb1d9	-0.28065374
8	0xbe5f4c62	-0.21806481
9	0xbf08b2ed	-0.5339802
10	0xbf09256d	-0.5357273
11	0xbe84bd0e	-0.25925487
12	0xbed2974a	-0.4113105
13	0xbf2f83a8	-0.68560266
14	0xbe7c6206	-0.24646768
15	0xbebec28b	-0.372578
16	0xbf16d473	-0.5891792
17	0xbf2be0d8	-0.6713996
18	0xbc553284	-0.013012532
19	0xbe7df775	-0.24801429
20	0xbf05fc27	-0.5233788
21	0xbe56b574	-0.20967656
22	0xbf15d8ad	-0.58533746
23	0xbece9291	-0.40346196
24	0xbefca71f	-0.49346253
25	0xbeacd559	-0.3375652
26	0xbf405d3a	-0.7514225
27	0xbea5d629	-0.32389954
28	0xbf0c5e9c	-0.5483186
29	0xbed30a23	-0.4121867
30	0xbc63dae0	-0.013907164
31	0xbe0047ed	-0.12527438
32	0xbe899c7e	-0.26877207
33	0xbeb16e3f	-0.34654424
34	0x3d8b397b	0.06798073
35	0xbf023c2d	-0.5087307
36	0xbebf1896	-0.37323445
37	0xbd8b15bb	-0.06791254
38	0xbec213e9	-0.37905815
39	0xbea2f4ae	-0.318273
40	0xbf047f8c	-0.5175712
41	0xbe7c9526	-0.2466627
42	0xbeb8ff77	-0.36132404
43	0xbf18045d	-0.5938166
44	0xbee7c0a3	-0.45264158
45	0xbf0b989b	-0.5452973
46	0xbe8afcad	-0.271459
47	0xbe925a1b	-0.2858437
48	0xbe46d1e5	-0.19416006
49	0xbe083bae	-0.13304016
50	0xbee30b81	-0.44344714
51	0xbe1603dd	-0.14649911
52	0xbea86e0a	-0.32896453
53	0xbf3af274	-0.73026204
54	0xbf0fee7c	-0.56223273
55	0xbea8fe4e	-0.3300652
56	0xbe487048	-0.19574082
57	0xbf025d2b	-0.50923413
58	0xbeff42e6	-0.49855727
59	0xbe621ed2	-0.2208207
60	0xbf224feb	-0.63403195
61	0xbf034d00	-0.5128937
62	0xbd29eef0	-0.041487634
63	0xbea13642	-0.31486708
64	0xbf2bd912	-0.671281
65	0xbeaff585	-0.34367004
66	0xbeabb9b4	-0.33540118
67	0xbed778d2	-0.42084366
68	0xbef5f7d4	-0.4804064
69	0xbee4f352	-0.4471689
70	0xbef2ecfe	-0.47446436
71	0xbefcf3d0	-0.49404764
72	0xbd3e2948	-0.046426088
73	0x3d6e2a00	0.058145523
74	0x3dc00f2c	0.09377894
75	0xbf25c14a	-0.6474806
76	0xbf034a55	-0.51285297
77	0xbf124892	-0.57141984
78	0xbe89bbb1	-0.2690101
79	0xbee03e8b	-0.43797716
80	0xbeb2dc9a	-0.3493393
81	0xbe8eccb1	-0.27890542
82	0xbee0334a	-0.4378913
83	0xbedf23b2	-0.4358192
84	0xbe275c52	-0.16343811
85	0xbf223ae6	-0.6337112
86	0xbe7da63b	-0.24770443
87	0xbf0a58dd	-0.54041845
88	0xbe2f886f	-0.17141889
89	0xbefae4d2	-0.490027
90	0xbe83de5d	-0.25755587
91	0x3ace1cc1	0.0015725122
92	0x3d2d6e45	0.04234149
93	0xbef93d98	-0.48679805
94	0xbf1438a9	-0.57898957
95	0xbeced9d2	-0.4040056
96	0xbed109d3	-0.40827808
97	0xbf03578d	-0.51305467
98	0xbf06f493	-0.5271694
99	0xbf012ffb	-0.5046384
100	0xbd2d0736	-0.042243205
101	0x3e4918d9	0.19638385
102	0xbe9d5380	-0.30727768
103	0xbf0a739f	-0.54082674
104	0xbefcba4d	-0.49360886
105	0xbe3785a1	-0.17922069
106	0xbeaacbad	-0.33358517
107	0xbf06f12e	-0.5271176
108	0xbed1c34f	-0.4096932
109	0xbe98a237	-0.2981126
110	0xbe6b6311	-0.2298701
111	0xbf236034	-0.6381867
112	0xbdd7b318	-0.10532206
113	0xbeebf987	-0.46088812
114	0xbeec892d	-0.46198407
115	0xbee10cd9	-0.43955114
116	0xbee98142	-0.45606428
117	0xbef218ad	-0.4728445
118	0xbec67434	-0.3876053
119	0xbe687946	-0.22702512
120	0x3e5f2ab6	0.21793637
121	0xbe0c08b5	-0.13675196
122	0xbf5611dc	-0.83621
123	0xbf0b2cf3	-0.5436546
124	0xbeb53c85	-0.35397735
125	0xbeda7da2	-0.42673975
126	0xbe62eda0	-0.22160959
127	0xbeaa4c2a	-0.33261234

net.2.weight f4 [64, 128]
0	0x3c264d76	0.010150304
1	0xbcf8d0ff	-0.030373095
2	0xbc97ab4c	-0.018514298
3	0xbafe9c19	-0.0019425183
4	0xbcaec231	-0.021332832
5	0xbdd30b4f	-0.10304891
6	0x3d19439f	0.037418004
7	0xbb353c2a	-0.0027654269
8	0x3bcae9a6	0.006192404
9	0x3d0864b1	0.03329915
10	0x3d0d2cd6	0.034466587
11	0xbd7f8b73	-0.06238885
12	0xbd41f83f	-0.047355887
13	0x3da10d1c	0.078638285
14	0xbc3f35f9	-0.011670583
15	0x3d63f86a	0.055656828
16	0x3c5f757f	0.013638853
17	0xbcc0de0e	-0.023543384
18	0x3d9e88a9	0.077409096
19	0xbdf91677	-0.12162488
20	0xbd4c3960	-0.049859405
21	0x3cecc0b8	0.02890049
22	0xbdcfc378	-0.101447046
23	0xbdb63e89	-0.088986464
24	0x39f40c39	0.00046548413
25	0x3c95d259	0.018288778
26	0xbd2e23fe	-0.042514794
27	0xbb3c754e	-0.0028756442
28	0xbd8976e9	-0.067121334
29	0x3d8670d1	0.06564487
30	0xbdc63cc9	-0.096795626
31	0x3cb62a0a	0.022236843
32	0xbccbfd2f	-0.024901
33	0xbcc1757e	-0.023615595
34	0xbd8448e9	-0.06459219
35	0xbd7ef77a	-0.06224773
36	0xbd9291c7	-0.07156711
37	0xbe341cb1	-0.1758907
38	0xbd5792b2	-0.052630134
39	0xbdef5e4b	-0.11687907
40	0x3cad11cf	0.021126656
41	0xbd561c00	-0.052272797
42	0xbce555d8	-0.027995035
43	0x3c9eb32e	0.019372549
44	0x3da57d77	0.08080571
45	0x3d8c556b	0.0685223
46	0xbdadf2a2	-0.08493544
47	0xbdc369f5	-0.09541694
48	0xbd3a350f	-0.045460757
49	0xbdd40f66	-0.103544995
50	0xbd187ca9	-0.03722826
51	0xbd1d42ed	-0.038393904
52	0xbc0c889d	-0.008577493
53	0xbd7ed943	-0.062218916
54	0x3d995a5d	0.074879386
55	0xbdbb5100	-0.09146309
56	0xbde4eee8	-0.1117838
57	0x3bcc52d7	0.006235461
58	0x3c9ff87c	0.019527666
59	0x3c8fb904	0.017544277
60	0x3d365303	0.04451276
61	0x3cb56b09	0.022145765
62	0xbdb2a837	-0.08723491
63	0x3c9d68aa	0.019214947
64	0x3d4a5c45	0.0494044
65	0xbde37bed	-0.11107621
66	0x3c54e27c	0.012993451
67	0xbbb0fc51	-0.005401172
68	0x3d1cc653	0.038275074
69	0xbda932a0	-0.08261609
70	0x3bdceefb	0.006742356
71	0x3d348087	0.044067886
72	0xbd48470d	-0.048895884
73	0xbc5fab9a	-0.013651753
74	0xbb9d4d86	-0.0048005013
75	0xbd44857e	-0.04797887
76	0xbd89acdd	-0.06722424
77	0x3ce6a36c	0.028154097
78	0xbca99f86	-0.02070595
79	0xbe1cc476	-0.15309319
80	0x3c878c06	0.01654626
81	0xbddf9bd2	-0.10918392
82	0x3ccdfa46	0.025143754
83	0x3c680a7b	0.014162655
84	0x3d15eac6	0.03660085
85	0xbd8a63fa	-0.0675735
86	0xbd82eeb7	-0.063931875
87	0xbcbe9707	-0.023265375
88	0xbd3fdea7	-0.046843197
89	0xbd0f06ee	-0.034918718
90	0xbcc3f2aa	-0.023919422
91	0xbd1c9d7f	-0.038236137
92	0x3dc0422e	0.09387623
93	0x3c472d60	0.012156814
94	0xbd19c27e	-0.037538998
95	0xbde0c3ac	-0.109748214
96	0x3bfa5309	0.007639293
97	0x3c60c4f6	0.013718834
98	0x3dd36ed0	0.1032387
99	0x3be6c321	0.007042304
100	0x3c763182	0.015026452
101	0xbb5216fa	-0.0032057152
102	0xbd58ca5b	-0.052927356
103	0x3d4f1c3e	0.050564043
104	0x3d93b3b3	0.07212009
105	0x3d1deecd	0.038557816
106	0xbd31cb81	-0.043406967
107	0xbd82634d	-0.06366596
108	0x3c826c36	0.01592074
109	0x3d2debbc	0.042461142
110	0xbcc94f35	-0.024573902
111	0x3d89bf76	0.067259714
112	0xbd9cd268	-0.07657319
113	0x3d16d1fa	0.036821343
114	0x3ca27b9d	0.019834334
115	0xbd5e7f79	-0.054320786
116	0x3d9211f6	0.07132332
117	0xbd465ca9	-0.04842821
118	0xbd83c8dd	-0.06434796
119	0xbd6ea1c7	-0.05825975
120	0xbdb5242c	-0.0884479
121	0xbdf0be08	-0.117549956
122	0xbe05bac4	-0.13059527
123	0x3b2f0d22	0.0026710709
124	0x3d9b8c49	0.07595117
125	0xbdef604a	-0.116882876
126	0x3d69f388	0.057117015
127	0xbd1a5ab8	-0.037684172
128	0xbe93ead3	-0.28890094
129	0xbea9788d	-0.33099785
130	0xbdddd4d6	-0.10831611
131	0xbd0d3cc7	-0.03448179
132	0x3cc56e35	0.024100402
133	0x3d141d20	0.03616059
134	0xbe6cdbac	-0.23130673
135	0xbe915d38	-0.28391433
136	0xbe109660	-0.14119864
137	0x3e18c23c	0.14917845
138	0xbeb52ebf	-0.35387227
139	0x3d425547	0.047444608
140	0xbd8ab420	-0.06772637
141	0x3e2b2981	0.16715051
142	0xbee98b72	-0.456142
143	0x3e1eb3a3	0.15498213
144	0xbe7cf976	-0.24704537
145	0xbe12a7f9	-0.14321889
146	0xbe024d88	-0.12724888
147	0x3e89fd03	0.26950845
148	0x3e89d1a9	0.2691777
149	0xbd910237	-0.070805006
150	0xbdcf64d1	-0.10126651
151	0xbe66fdb5	-0.22557719
152	0xbde3cc5d	-0.111229636
153	0x3e908613	0.2822729
154	0xbe055d10	-0.13023782
155	0x3d6a2d2b	0.05717198
156	0xbdad8fbb	-0.0847468
157	0xbd21d413	-0.03950889
158	0xbda5450f	-0.080698125
159	0xbd6ce371	-0.057834093
160	0xbd56b0ed	-0.052414823
161	0x3e5f833c	0.21827406
162	0xbe076653	-0.13222627
163	0xbeaf5184	-0.3424188
164	0x3e1bfea8	0.15233862
165	0x3e284bc1	0.16435148
166	0x3d4079ae	0.046991043
167	0xbcd6dab9	-0.026227342
168	0xbe6431f8	-0.22284687
169	0xbeb78029	-0.35839966
170	0xbe19e7b9	-0.15029801
171	0xbda606f3	-0.08106794
172	0x3d10523e	0.035234682
173	0xbe1cc6d0	-0.15310216
174	0xbe5c009b	-0.21484606
175	0xbd63cb18	-0.055613607
176	0x3d8dab99	0.06917495
177	0x3d9ee69e	0.077588305
178	0x3e120eb8	0.14263427
179	0xbe0ee3c2	-0.1395407
180	0xbad1de72	-0.0016011728
181	0x3daeaf3d	0.08529518
182	0xbe77b040	-0.24188328
183	0x3cd764cf	0.026293186
184	0xbd4c53f0	-0.049884737
185	0xbdbd475b	-0.092421256
186	0xbd811333	-0.0630249
187	0xbd63af93	-0.055587362
188	0xbd2796a5	-0.04091515
189	0x3ea5149b	0.32242283
190	0x3d7384f3	0.059452962
191	0xbd5817d4	-0.0527571
192	0x3db03102	0.086030975
193	0x3e0a40d5	0.13501294
194	0xbe88d2d5	-0.26723352
195	0x3dabc0cd	0.08386383
196	0xbc869b3f	-0.016431449
197	0xbc92397b	-0.017849674
198	0xbe0616e7	-0.13094674
199	0xbdff3577	-0.124613695
200	0x3e0cad47	0.13737975
201	0xbd576cd0	-0.052594006
202	0xbdb27dfd	-0.087154366
203	0xbdb2f5a9	-0.08738262
204	0x3c181454	0.00928219
205	0x3e109b4d	0.14121743
206	0x3d429f2c	0.04751508
207	0x3e216e72	0.15764788
208	0xbf3a45f8	-0.72763014
209	0xbe1c3395	-0.15254052
210	0x3ce09881	0.02741647
211	0xbdfe00e3	-0.12402513
212	0x3dcf9e41	0.101376064
213	0xbe4c1ef5	-0.19933684
214	0xbdb9cfb6	-0.09072821
215	0xbdba3df5	-0.090938486
216	0x3d06e05d	0.032928813
217	0xbebf0c03	-0.37313852
218	0xbe746585	-0.23866852
219	0xbe360a1c	-0.17777294
220	0xbdc8109c	-0.09768793
221	0xbe1caf1b	-0.15301172
222	0x3e852f70	0.26012754
223	0xbe168bb2	-0.14701727
224	0x3bef91cd	0.007311082
225	0xbef45e35	-0.47728124
226	0xbc2c16f8	-0.010503523
227	0x3e43e640	0.19130802
228	0xbc895f70	-0.016769141
229	0xbdb74ddc	-0.08950397
230	0x3e9a5498	0.30142665
231	0x3dc246a7	0.09486132
232	0xbdb052ad	-0.08609519
233	0x3cc959f4	0.024579026
234	0x3e020e8e	0.12700865
235	0xbe9c6a7a	-0.30549985
236	0xbda963a6	-0.082709596
237	0x3e825ea5	0.25462833
238	0x3d3ea546	0.046544336
239	0xbd1a6f89	-0.037704024
240	0xbd9f42be	-0.07776402
241	0xbe138942	-0.14407828
242	0xbddfb6d5	-0.10923544
243	0x3e63cf70	0.222471
244	0x3bd4a63a	0.0064895423
245	0x3db1b12b	0.0867637
246	0xbb5d00f2	-0.0033722487
247	0xbe5d7b99	-0.2162918
248	0xbdb660fc	-0.08905217
249	0xbe6a6e32	-0.22893599
250	0xbde411e7	-0.11136227
251	0x3d871b86	0.065970466
252	0xbcb1b579	-0.021692978
253	0xbd959d92	-0.07305445
254	0x3dd3a0e5	0.103334226
255	0x3d1bcda5	0.038037915

net.2.bias f4 [64]
0	0x3cbd74cb	0.02312698
1	0x3e373a7a	0.17893401
2	0xbe0889f2	-0.13333872
3	0x3e19b687	0.15011035
4	0x3dcadf84	0.099059135
5	0x3ce74a10	0.028233558
6	0xbe2101bf	-0.15723322
7	0x3d990a80	0.07472706
8	0x3e478006	0.19482431
9	0xbde3bf7c	-0.11120507
10	0x3e1f6b01	0.15568163
11	0xbd2ec6c4	-0.042670026
12	0xbd3adb5a	-0.045619346
13	0x3df827f1	0.12116993
14	0x3eb0cdba	0.34531957
15	0x3c422ae9	0.011851051
16	0x3d697b28	0.057002217
17	0xbda5b9a3	-0.08092048
18	0x3da01ced	0.07818017
19	0xbd3d7d07	-0.046261813
20	0xbe96d886	-0.2946207
21	0x3cc40741	0.02392924
22	0x3d71db63	0.059047114
23	0x3b73d590	0.003720615
24	0xbe936840	-0.28790474
25	0xbd170e45	-0.036878843
26	0xbc43cfdb	-0.011951412
27	0x3d752517	0.059849825
28	0xbd9ec9d5	-0.0775334
29	0x3d87f6a3	0.06638839
30	0x3e8e394d	0.27778092
31	0x3d1b3e88	0.03790143
32	0xbe48e9dc	-0.1962046
33	0xbdb26be4	-0.08711985
34	0x3ccec2bf	0.025239347
35	0xbcd7ddc2	-0.02635086
36	0xbd1d19b6	-0.038354598
37	0x3e2d6a9b	0.16935198
38	0x3e41bf96	0.1892074
39	0xbbce6ca0	-0.00629957
40	0x3e4cc8ca	0.1999847
41	0xbdac0613	-0.08399596
42	0x3d31d271	0.043413583
43	0x3e014b3d	0.12626357
44	0x3e4c2b0a	0.19938293
45	0xbe4d6fbf	-0.20062159
46	0xbd7f6cd8	-0.06235966
47	0x3c3798fe	0.01120591
48	0xbb449c37	-0.0030000338
49	0x3d274ec6	0.04084661
50	0x3e830634	0.2559067
51	0x3d67c42f	0.05658358
52	0xbeede030	-0.46460104
53	0x3eaea835	0.34112707
54	0x3d949919	0.072557636
55	0xbcff82e0	-0.031190336
56	0x3e908480	0.2822609
57	0x3e5dec17	0.21672092
58	0x3dafd0c6	0.08584742
59	0x3e435d70	0.19078612
60	0x3da52a0d	0.08064661
61	0x3e1d8409	0.15382399
62	0x3dbb4ca6	0.09145479
63	0xbca61920	-0.020275652

coord_head.weight f4 [2, 64]
0	0xb90f5784	-0.00013670145
1	0x3ac35f6f	0.0014905761
2	0xbdc2caee	-0.09511362
3	0xbdc91f61	-0.09820438
4	0x3be04815	0.0068445303
5	0xbb332669	-0.0027336127
6	0x3cf166b7	0.029467924
7	0x3d1b68a3	0.037941586
8	0x3d1e4692	0.03864152
9	0x3de527f8	0.11189264
10	0xbb863f83	-0.0040969267
11	0xbe0c6998	-0.13712156
12	0xbdeea256	-0.11652057
13	0xbdb65d22	-0.089044824
14	0x3e22ecbe	0.15910622
15	0x3cf3cd8d	0.0297611
16	0xbd260923	-0.040536057
17	0xbcd61f24	-0.026137896
18	0xbd75c98d	-0.060006667
19	0x3d0ce410	0.034397185
20	0x3d4b811a	0.049683668
21	0xbd8d81fd	-0.06909559
22	0xbd391506	-0.045186065
23	0x3cf2a8b3	0.029621458
24	0x3f670bed	0.9025257
25	0x3cfd2345	0.030900607
26	0x3e0ead6e	0.13933346
27	0xbd97aca9	-0.07405979
28	0xbd6b011d	-0.05737411
29	0xbdf70865	-0.12062148
30	0xbc7765b6	-0.015099933
31	0x3dbb5e9d	0.091489054
32	0xbc0b94c6	-0.008519357
33	0xbc723bb7	-0.014784745
34	0x3d621b6a	0.055201925
35	0x3c706865	0.014673327
36	0xbcb99a72	-0.022656653
37	0xbc081415	-0.008305569
38	0x3cfce33f	0.030870078
39	0x3d40eab0	0.047098815
40	0x3d2621c3	0.04055954
41	0x3d851c81	0.06499577
42	0xbbe5efef	-0.0070171277
43	0x3d6c15e3	0.05763806
44	0xbe927639	-0.28605822
45	0xbd25204c	-0.040314004
46	0xbc97d3eb	-0.018533668
47	0x3d9745fa	0.07386394
48	0xbc9f5be7	-0.019453002
49	0xbe64c7ff	-0.22341917
50	0x3d6dc07e	0.058044903
51	0x3c4e4524	0.012589727
52	0x3dfa508f	0.122223966
53	0xbdf1644a	-0.11786707
54	0x37f5ddd0	2.9309565e-05
55	0x3d642265	0.055696864
56	0x3c7d9689	0.015477785
57	0x3d9b61a8	0.07586986
58	0x3e0f7f23	0.14013343
59	0x3c05c514	0.008164663
60	0x3e9d2cda	0.30698282
61	0xbbc368c1	-0.0059634154
62	0xbc679c56	-0.0141363945
63	0x3ccdf5cc	0.02514162
64	0xbba46114	-0.0050164554
65	0x3d137c3d	0.036007155
66	0xbdf57312	-0.119848385
67	0x3dccc3a5	0.09998254
68	0xbadc9356	-0.0016828577
69	0xbb8423b7	-0.004032578
70	0x3c82c016	0.015960734
71	0x3e604588	0.21901524
72	0x3d28a3fc	0.041172013
73	0xbd58d7fb	-0.05294035
74	0x3d0c516d	0.03425734
75	0xbdc58785	-0.09644989
76	0xbd265d46	-0.040616296
77	0x3e32ad10	0.1744883
78	0x3df61fce	0.12017785
79	0x3aea40ca	0.0017872092
80	0x3e100309	0.14063658
81	0xbd077c22	-0.033077367
82	0x3d34a9e0	0.044107318
83	0x3c4f9a4b	0.012671064
84	0xbe3ddcbb	-0.18541233
85	0x3c0616be	0.008184133
86	0x3e8d2e07	0.2757418
87	0xbdbd9241	-0.09256411
88	0xbda8dd84	-0.08245376
89	0xbe46eec5	-0.19427021
90	0x3da6d91a	0.081468776
91	0xbe09d834	-0.13461381
92	0x3b41f355	0.00295945
93	0x3d2b1231	0.041765396
94	0x3e3cf591	0.18453051
95	0xbca7ce03	-0.020483976
96	0xbe7feb6a	-0.24992147
97	0x3ca7f3ea	0.02050205
98	0xbdae5dd1	-0.08513988
99	0x3bc69706	0.006060484
100	0xbd19ef7f	-0.037581917
101	0x3cff8586	0.031191599
102	0x3bc3298d	0.005955881
103	0x3c5176f0	0.012784705
104	0x3e1240d1	0.14282538
105	0xbd77bfc6	-0.060485624
106	0x3c1027bb	0.008798535
107	0x3e1e22db	0.15442984
108	0x3ea470c4	0.32117283
109	0xbcdbb546	-0.026819836
110	0xba954a23	-0.0011389892
111	0xbd5e7c1f	-0.05431759
112	0xb9b509c3	-0.00034530283
113	0x3d41677f	0.047217842
114	0x3da303b8	0.07959694
115	0x3d856b54	0.06514612
116	0xbe6cc572	-0.23122194
117	0x3dada59e	0.084788546
118	0xbda26f70	-0.07931411
119	0xbdc1926f	-0.09451758
120	0x3d80045f	0.06250834
121	0x3c06a2a4	0.0082174875
122	0xbd629f5e	-0.055327766
123	0x3d14e612	0.036352225
124	0x3d91b90b	0.07115372
125	0x3d43680a	0.04770664
126	0xbdc7259f	-0.097239725
127	0x3ca26051	0.019821318

coord_head.bias f4 [2]
0	0x3e90cb51	0.28280118
1	0x3ea7879e	0.32720655
