outputs/checkpoints_v2/mlp_real_gps_scaled_v2_ul.pth (torch, 55420 bytes, 6 tensors)

net.0.weight f4 [128, 36]
00000000: 2c3d 563e d104 e73c a4d0 1ebe a5b3 0bbc
00000010: 08f8 fbbc a537 093e 289c 113e 67de c6bd
00000020: 70ed 3c3e cd24 3c3e 27cf c03d b36a 0a3e
00000030: 3bcb 443d 8df5 b73d aa87 c13a 85e2 833c
00000040: 4ab5 133e 1544 f8bd 83f0 94bd efce c53d
00000050: 97f5 183e 75e3 09bd 374f 87be 400b e93d
00000060: 2a78 02bd 46b0 1c3e 860d 5cbd 6906 0cbd
00000070: 6d43 cfbd 741d 00be 5f52 97bd 5a2c 143d
00000080: 21a8 25bc 1487 c33c eaf8 d7bd 436e b83d
00000090: 641c 723e 0c19 a0bd 338b d43e 7eaf 0b3e
000000a0: e82a 74be 92e3 9a3d b4e4 813c 7d26 e5bd
000000b0: 4a09 32be 7573 afbc c7d2 1f3e 0692 cb3d
000000c0: 742b 493c e80d b93d 0417 dabd e88e 06be
000000d0: 02e7 433e f28a d93a 5e18 073e 3feb 12bc
000000e0: 53f6 733d 3119 6bbd a6fc dabc 559e 903d
000000f0: 9c4a efbc 3cce 443d 82a0 39bd 6878 b2bd
00000100: 44c1 9f3c ed07 0e3e d6b9 b0bd 1966 75bd
00000110: 6810 413d 2cb4 463d 9428 63bd 93ac 71bc
00000120: cb94 dc3c bd2c 443e 013a 32be 66e2 15bd
00000130: c941 0fbe 1b60 8f3d 3105 0a3d 7d1f a53c
00000140: 96ac 4c3e ddf0 b1bc f9f0 50be 1f1a 0a3e
00000150: 5d95 07be 6a3a b83d 7273 41be b610 e33d
00000160: 6347 023e 2e64 1ebe 8d9e 44be 14cd 0a3e
00000170: c99b c9bc 3b41 20bd 832c b93d f935 7bbd
00000180: 2789 5fbd 12e0 723d f5ef 343c 1a30 e13d
00000190: eb40 8d3b b591 3fbd febd 233e 4813 b03c
000001a0: 0454 cb3d 70aa f6bd 1670 c13c 4b0a 39bd
000001b0: a29b d83b 29f5 093d e090 c33c a2e3 33bd
000001c0: 479f 72bd 053c 57bd 6f13 06be d71d 03bd
000001d0: e488 aabc d17c dd3c f7ab 2cbd 1649 0c3e
000001e0: 0731 cb3d e499 603d db2e 823d 6d6d c03d
000001f0: 8d2a e6bd 0610 073e c048 4d3e 4a97 96bd
00000200: 9a4f f5bd c6af fd3c 664a 883d e47d 093c
00000210: c407 34bd c400 81bd 86d4 3ebe b963 193e
00000220: 9ada 783d 46ac 553d 4f50 e3bb c402 243d
00000230: eb5b b63d 29ef 31be 0df6 e53b d818 0ebc
00000240: 866b 313d 3525 6fbd a551 2e3d a5aa 883d
00000250: a55b d5bc 812d e4bd 39b2 113d e1a3 21bd
00000260: 1cd6 293d a699 11be b754 a13d 89d4 0fbe
00000270: 3547 db3d 7adf 39bd e603 0bbe 0adb 013e
00000280: 6802 0f3e cf36 edbc 39d3 67be 3f02 533c
00000290: c4a2 f53b 83d7 223e 61ce 6fbd e4c3 9a3d
000002a0: 8773 46be 915a 1fbe 02e1 a73d 731c 7f3d
000002b0: 2e73 9ebd f240 bf3d d842 04bd f878 1bbe
000002c0: 9107 69bd 439c 1bbe 29fc a63d 8ac6 e7bd
000002d0: 07bc 1d3e 80f3 6c3e afae e13c af68 c6bd
000002e0: 2a00 333e d65d bcbd c016 09be f3ce 353d
000002f0: 21d0 e1bc 6ce2 233d 9792 b73d cac7 c03d
00000300: 052a 0cbe 7c47 3a3d 7d09 18be 9e59 453d
00000310: 86a2 723d d1a4 2fbe d10a c93d 64a7 14bd
00000320: 386f 493d 79f3 f4bd c4c8 2c3e 3aa5 9c3e
00000330: 39aa b8bd 143a f63d 5333 fc3d 85b8 a7bd
00000340: 24d5 463d aae1 333e 1d56 26be 8ea1 163d
00000350: aed3 b13d 96e3 b63d 4411 58be d266 0a3e
00000360: 48cd 80be 3735 b63d e239 e839 721a 2abd
00000370: 7011 113d 71f8 133c 5d81 a73d ccd1 30be
00000380: b898 b83d 09d9 26bd 3137 70bd 061d 6dbd
00000390: 93f1 1abe 4165 5a3d e881 a13c d277 d93d
000003a0: 121d 0a3e dca1 d2bc 4cd9 e63d 9203 cbbe
000003b0: 33fc 69be da79 0e3d 18b4 613b 2378 1d3e
000003c0: 093b bf3d 517c c1bd 6102 57bd 6a02 103e
000003d0: 5fba cc3d 8ed4 b73d f778 5abe bc0a 1c3c
000003e0: 6e44 cbbd 1c9f fa3d 9cc6 3ebe 7215 0e3e
000003f0: 16bf 243c bdf9 82be cfb6 8e3d 22f7 1dbe
0.20921773 0.028200539 -0.15509278 -0.008526717 -0.030757919 0.13400133 0.14219725 -0.09710389
0.1844995 0.18373413 0.09414511 0.13517265 0.04804538 0.08982382 0.0014765162 0.016099224
0.14424625 -0.121223606 -0.072724365 0.0965861 0.14937435 -0.033664186 -0.26427624 0.11379099
-0.03185288 0.15301618 -0.053723834 -0.0341858 -0.10120282 -0.12511235 -0.07388758 0.03617511
-0.010110886 0.023868121 -0.105455235 0.09005406 0.23643643 -0.07817277 0.4151245 0.13641164
-0.23844492 0.07562937 0.015856124 -0.11188982 -0.17386356 -0.021417359 0.15607749 0.09939961
0.012278426 0.090358555 -0.10648921 -0.13140452 0.19131091 0.0016597195 0.13192889 -0.00896722
0.059561085 -0.05739707 -0.0267318 0.070614494 -0.029210381 0.048048243 -0.045319088 -0.08714372
0.019501336 0.13870211 -0.086291954 -0.05991182 0.047134787 0.04851167 -0.05545862 -0.014750618
0.026926419 0.19157691 -0.17404939 -0.036592864 -0.13989939 0.070007525 0.033696357 0.020156616
0.19987711 -0.021721298 -0.20404424 0.13486527 -0.13240571 0.089955166 -0.18891695 0.11087172
0.12722544 -0.15467903 -0.19201107 0.13554794 -0.024610417 -0.03912471 0.09041693 -0.06133077
-0.054574158 0.05929572 0.011043538 0.10995503 0.0043107173 -0.046769816 0.15990445 0.021493569
0.09928134 -0.12044227 0.023613017 -0.04517583 0.0066103498 0.03368107 0.023872793 -0.04391826
-0.05923393 -0.052547473 -0.13093351 -0.03201088 -0.020817228 0.027037056 -0.042156186 0.13699755
0.099214606 0.05483426 0.06356593 0.09395871 -0.11238585 0.13189706 0.20047283 -0.07353075
-0.119780734 0.030967604 0.066548154 0.008391831 -0.04395272 -0.06298974 -0.18635759 0.14979447
0.06075535 0.052166246 -0.0069370638 0.0400417 0.08904251 -0.17376389 0.007017857 -0.008672915
0.043315433 -0.058385093 0.04255833 0.06673173 -0.026044676 -0.11141492 0.035570357 -0.039462928
0.041463956 -0.14218768 0.07877486 -0.1404592 0.10706941 -0.04537914 -0.13575706 0.12681213
0.13965762 -0.028956799 -0.22639169 0.0128789535 0.00749621 0.15902524 -0.058546428 0.075568944
-0.19380008 -0.15561892 0.08197214 0.06228299 -0.077368125 0.09338559 -0.03229031 -0.15182865
-0.05689198 -0.15196328 0.081535645 -0.11317165 0.15403758 0.23139763 0.027549116 -0.096879356
0.17480531 -0.09197585 -0.13387585 0.044386815 -0.027565064 0.040010855 0.08963507 0.09413107
-0.13687904 0.04547833 -0.1484737 0.04818117 0.059237026 -0.17152716 0.09816516 -0.03629245
0.049178332 -0.11960501 0.16873461 0.30594808 -0.090168424 0.12022796 0.12314477 -0.08189491
0.04854311 0.17566553 -0.16243787 0.036775164 0.08682953 0.08930127 -0.21100336 0.13515785
-0.25156617 0.08896869 0.00044293614 -0.041529126 0.03541702 0.009031401 0.08178971 -0.17267531
0.09013504 -0.040734325 -0.058646385 -0.057889007 -0.15131216 0.05331922 0.019715264 0.10618557
0.13487652 -0.025711946 0.11271915 -0.3965116 -0.22850113 0.034784175 0.003443962 0.1537786
0.09337432 -0.094475396 -0.052492503 0.14063421 0.09996485 0.089760885 -0.21335207 0.009524044
-0.09925161 0.12237379 -0.18630451 0.13875368 0.010055324 -0.2558116 0.06968462 -0.15426305

net.0.bias f4 [128]
00000000: 956c 11be e83c eebd 75f3 2fbd 1da8 f6bd
00000010: 74e5 4c3d d2d4 73bd 4072 23bd 67b4 57be
00000020: cce9 42be 6551 2dbe 0219 83bc 7ead b6be
00000030: 046e 3a3d 0163 55be d94a 8cbe 55de 7c3d
00000040: f97d b73d 48e1 ec3c 66d4 c7bd 92a9 4cbe
00000050: b599 c83d 9176 113e 5058 753d d13d 153e
00000060: f839 793c 0c98 1f3d cc9e 8ebc 4093 f83b
00000070: 7132 b7bd 136d 42bd 7539 443d 629b b93d
00000080: bbc0 053d 6e25 e3bd 7f37 2a3e e8ab c7bb
00000090: 78c0 15be 8a9e 1bbe c572 a23c 30b1 88bd
000000a0: 7805 17be 7375 dd3d 464f 083a eda1 9ebd
000000b0: c9f5 39be 677c 8b3d 35b1 69be e72b 76bd
000000c0: 3435 55be 8ec9 a7bc e4cb b8bd 9892 a53d
000000d0: 3aac 5cbe fa00 c53c 79a3 febd 729f cf3d
000000e0: 72bd 98be e4b4 2abe 0f87 7a3d f761 9d3c
000000f0: 8ef4 563d 63a0 60bd eaa0 7cbc 3e3e e13d
00000100: 0a2e 6ebe 2ea3 1c3e e2c5 78be f62c 3dbe
00000110: 4174 ba3d a352 08bc 8a6c 323c 7013 533e
00000120: 2057 75be f2ce 4fbd 0b10 143e 3694 c2bd
00000130: aa1a e93d 9bf2 183c 4da0 b93d 772f f33c
00000140: 2abc 5abe 3687 933d 5ebd 293e aba0 4e3c
00000150: da92 04be cfd4 403e 17bb 79bd 26d5 0e3e
00000160: d865 41be 1005 a3bd 33c3 10be 1a2d 783d
00000170: cf12 74bd 1d56 3cbe ebbd 033e 3c21 03be
00000180: 2f7b a6bd c3b3 c0bc f082 a5bb 574c 58be
00000190: 18f4 c9be d189 d73d dbd5 8dbd 6e4e 98bd
000001a0: 8abd 253d 4030 7dbd dbd6 babc d219 68be
000001b0: a2ab 2fbe 695b a4bd 1e09 54bc 956d 973d
000001c0: 3a6a 543e 4282 643d 80f2 a6bd e208 b2bd
000001d0: 4b25 4cbe 102b b63d 0149 ba39 1610 bb3d
000001e0: 31ca 45be 7bd8 63b9 bb7f 2b3e f123 873d
000001f0: 9a5f 83be a40a a73d 9fbc 233e 7e7a 923d
-0.14201577 -0.11632711 -0.042956788 -0.12043784 0.05002351 -0.059529133 -0.03990388 -0.21064912
-0.19034499 -0.16925581 -0.016003136 -0.3567924 0.045515075 -0.20838548 -0.27400854 0.06173547
0.08959574 0.028916016 -0.09757309 -0.19986561 0.09794942 0.14205386 0.059898674 0.14574362
0.015211575 0.038963363 -0.017409705 0.007585913 -0.08945168 -0.047467303 0.047906358 0.0906284
0.032654505 -0.110911235 0.16622733 -0.006093491 -0.14624202 -0.15197197 0.019830117 -0.06674421
-0.1474818 0.10813417 0.0005199801 -0.07745729 -0.18160166 0.06810837 -0.22821505 -0.060100462
-0.20821077 -0.020481851 -0.09023264 0.08084601 -0.21550074 0.024048317 -0.12433524 0.10137834
-0.29832035 -0.16670567 0.06116396 0.019211752 0.05247932 -0.054840457 -0.015419224 0.109982
-0.2325975 0.15296623 -0.24294236 -0.18474182 0.09104205 -0.008320483 0.010890136 0.20612884
-0.23959017 -0.050734468 0.14459245 -0.09500925 0.11382039 0.009335185 0.09063778 0.029685719
-0.21360841 0.07203524 0.16576144 0.012611548 -0.12946644 0.1883118 -0.06096944 0.13948497
-0.18886507 -0.0795995 -0.14136963 0.060589887 -0.05958825 -0.18392225 0.12865417 -0.12805647
-0.08128964 -0.023523217 -0.0050510094 -0.21122871 -0.3944404 0.10524333 -0.06925555 -0.07436834
0.04046396 -0.061813593 -0.02280753 -0.226661 -0.17155316 -0.080252476 -0.012941627 0.07393948
0.20743647 0.055788286 -0.08151722 -0.086931005 -0.19936101 0.08894932 0.00035531077 0.091339275
-0.19315411 -0.00021729052 0.16747944 0.06598652 -0.25658876 0.081563264 0.15989922 0.0715227

net.2.weight f4 [64, 128]
00000000: 4e76 0e3d d537 8dbd ab4e 88be 0f1b 36bc
00000010: cde8 61bc 07c2 c43c 233f dbbd d82b c6bd
00000020: 82ed 31be eb70 27be 69d3 c1bd 03ec 8b3d
00000030: b0e4 873d b1c8 503e bb04 9ebc 1c8e 573d
00000040: 0ae6 c4bc 7c7c 1d3c 7c95 0c3e 848b 05be
00000050: 9637 3bbd 02f6 d13b 525a c73d e10f 73bd
00000060: a64e 873d 91e9 7dbd d6f8 903b 60db 26be
00000070: b08f c83d c6e9 babd 79c1 663d 6808 0a3a
00000080: 0ee3 4d3d add2 45be cab1 e43d 458f 01be
00000090: e941 583e b4b4 3ebd 6586 5b3d 3047 37be
000000a0: 1665 2ebc 2fe8 6f3b f389 92bd 896b ecbc
000000b0: 9ab4 f63c 412a 5a3d 1b73 3ebe d7d1 d1bc
000000c0: 891b c0bd 8b93 11bd 58db cc3d ea37 f63d
000000d0: 3391 09be db25 423c 5539 7dbe b217 f6bd
000000e0: 2260 38be 9c6f afbd a31b fb3d ab74 94bb
000000f0: 7247 43bc 2cc7 19be 9450 c4bb 84dc 9f3d
00000100: ce15 c83d 3b67 793c ba47 0e3e b580 133e
00000110: 2819 3bbe 736c 0b3c 8c4d c03b ce45 87bc
00000120: 2fc3 703c 031c 8ebd 0a80 8ebd ca85 00be
00000130: abdd 05bd 0cb9 42bd 33b6 09bd ba39 d03d
00000140: e440 0dbd 4b2b cfbc 0b60 45bd 1a52 013d
00000150: 2645 d4bc 64e3 7a3d ff03 373c 7581 3abc
00000160: 182a 0d3d 26d4 e3bc 8fed be3d 3624 fbbd
00000170: 0630 c33d 3aad 71be 589f c73d ff42 893d
00000180: d599 a2bd 0ac6 493d 1987 c03c 5abf aebe
00000190: 1446 48bf 35ef 1cbd 31aa 80bd c1c9 28bd
000001a0: 4d98 90bb d27a bb3d 55ff 933d b316 a33d
000001b0: 8ccb 913b ce20 2f3d 6e81 f1bc 9052 b43b
000001c0: d656 41bd 2585 25bd 5a9e 3a3d 5315 d4bc
000001d0: 3d45 073e 17ee d13c f5ca 443d f708 02be
000001e0: 65dc 433c e525 a73d 35ad 843d d7b3 01bd
000001f0: 12ba dcbd 3914 4a3d aa18 0b3e 0aba 6dbc
00000200: c113 203d d24e db3c 1b57 a9bd d2a2 c1bc
00000210: 139e 3dbd 4570 6bbb cbc9 76bd 283e 09bd
00000220: 786a d5bc 117f b7bd ff56 cebc 3a66 dbbc
00000230: c383 abbd e11f 443d 2696 54bd 071a e4bc
00000240: 31ea 7a3d ddd0 32bd 87f3 453d ad3b dbbd
00000250: d685 93bd 57e3 e93c 0c4c 53be fe55 d5bd
00000260: b36d a1bd f1a5 603d 8797 98bd 208c 1bbd
00000270: 1033 d9bc f66b ac3d 5dd2 fbbc d44a b43d
00000280: c1ca 40bd fe87 fcbc 92cd 82bd 8369 d63c
00000290: 662d c63d 0c77 e63b 176e a03c a10a a83d
000002a0: a69e f13c 13d5 783c da3f ea3c f807 753d
000002b0: faba 533d db8e 10bd 594d 6e3c a435 aa3c
000002c0: 12a0 713d b4c4 0cbd a73b c3bd 94d3 0f3d
000002d0: 8065 e735 8b62 e5bd fe44 b8bd e8d9 9d3c
000002e0: b6e2 3bbd fc39 47bd 68ed e6bb 5288 c3bc
000002f0: 88ab 0dbe fae8 1bbd c624 adbc c5b3 92bd
00000300: 00e3 19bc a49f 93bd 3d77 adbd 60b5 e5bc
00000310: 13cc 3abd 27e3 d63c a10f 90bb a74c a13d
00000320: d52a c13c 3adf d63d b449 eabc 6a3f 9639
00000330: 34f1 bebd 9ff8 09be 3e4d 5a3d 6764 bdbd
00000340: 94cf aabd 5087 6fbd bbca d8bc b8e8 c7bd
00000350: 196f 923b 35f4 97bd 9ece c3bd 9d91 cbbd
00000360: 1416 e0bd 7a14 2fbd 7436 85bd 5f3e 81bd
00000370: 90f4 c4bd 84d7 8fbd 9371 d3bc 2c73 ee3c
00000380: 8f1c 53bd 4782 823d e822 aebd e7b6 aa3b
00000390: b300 89bd 1c02 ecbd 89d6 82bd 11f2 a1bd
000003a0: cce7 a7bd fdbb 85bd 7fe6 293d 1257 c53b
000003b0: 1334 cf3c b5e4 c2bd 4e7f 293d a49d d6bc
000003c0: 3adc cbbd 6cdb 273d e026 d5bc 1031 80bd
000003d0: 570a 80be 981d 2a3d 934d 20b5 e8c1 393c
000003e0: 0bea c1bc 2dc1 c83c a9cd b6bc d9aa ee3c
000003f0: c5c8 beba 60f1 6bbd 426d 34bc 2450 d1bc
0.034780793 -0.06895415 -0.2662252 -0.01111485 -0.013788414 0.0240183 -0.10705402 -0.09676331
-0.17375758 -0.16351669 -0.094641514 0.06832125 0.066354156 0.20389058 -0.019289365 0.05262576
-0.024035472 0.009612199 0.13728899 -0.13041502 -0.045707308 0.0064075002 0.09734024 -0.059341315
0.06606798 -0.061990324 0.004424195 -0.16294622 0.09793031 -0.0912662 0.056336854 0.0005265535
0.050265364 -0.19318648 0.11166723 -0.12652309 0.21118893 -0.04655905 0.053594965 -0.1789825
-0.010644218 0.0036606898 -0.07155218 -0.02885987 0.030115414 0.053262953 -0.18598597 -0.025612755
-0.09380252 -0.0355411 0.10002774 0.120223835 -0.13434295 0.011849846 -0.24728902 -0.12016238
-0.18005422 -0.0856621 0.12261131 -0.0045305095 -0.011918889 -0.15017384 -0.005991051 0.07805732
0.09769784 0.015222366 0.13894549 0.14404567 -0.18271315 0.008509743 0.0058686193 -0.016512778
0.014694973 -0.069389366 -0.06958015 -0.12551036 -0.032682102 -0.047539756 -0.033621024 0.101672605
-0.034485713 -0.025289198 -0.048187297 0.03157244 -0.025911879 0.061252013 0.011170386 -0.011383404
0.03446397 -0.027811121 0.093226545 -0.12262766 0.09530644 -0.23601237 0.09747189 0.067022316
-0.079394974 0.04926113 0.02350192 -0.34130365 -0.7823193 -0.038314063 -0.062824614 -0.041208033
-0.004412687 0.091542855 0.07226435 0.07963314 0.0044493135 0.042755894 -0.029480662 0.0055030063
-0.047201954 -0.04041018 0.045561172 -0.025889074 0.13210006 0.025626225 0.048045117 -0.12698732
0.011954402 0.08161525 0.06478349 -0.03166565 -0.107776776 0.049335692 0.13583627 -0.014509687
0.03908134 0.026770983 -0.08268567 -0.02363721 -0.04629333 -0.0035925072 -0.06025104 -0.033506542
-0.026051745 -0.08959783 -0.025187967 -0.026782144 -0.08374741 0.047881965 -0.051901005 -0.027844442
0.0612585 -0.04365622 0.04832795 -0.107047416 -0.072032616 0.028550787 -0.20634478 -0.10416792
-0.078822516 0.054845754 -0.074507765 -0.03797543 -0.026513606 0.084190294 -0.030739957 0.08803335
-0.04706836 -0.030826565 -0.06386866 0.026173359 0.09676628 0.0070332345 0.019583745 0.08205152
0.029494595 0.01518752 0.0285949 0.059822053 0.051691987 -0.035292488 0.014544808 0.020777531
0.058990546 -0.03436728 -0.09532862 0.035113886 1.7240382e-06 -0.11200436 -0.08997534 0.019268945
-0.045870505 -0.048639283 -0.007047344 -0.023868714 -0.13834965 -0.03806398 -0.021135699 -0.071631946
-0.0093925 -0.072081834 -0.084700085 -0.028040588 -0.045604777 0.026231362 -0.0043963944 0.078759484
0.023579994 0.10491796 -0.028599598 0.00028657477 -0.093233496 -0.13473748 0.05329632 -0.09247666
-0.08340374 -0.058478653 -0.026463857 -0.097611845 0.0044688103 -0.07419626 -0.095608935 -0.09939883
-0.10941711 -0.042744137 -0.06504527 -0.063107245 -0.09616959 -0.07023528 -0.025810992 0.029107653
-0.051540907 0.06372505 -0.085027516 0.005209792 -0.066895865 -0.1152384 -0.063885756 -0.07907499
-0.081985086 -0.065299965 0.041479584 0.0060223425 0.025293386 -0.09516279 0.041381173 -0.026198216
-0.09954114 0.04098074 -0.026019514 -0.06259358 -0.2500789 0.04153213 -5.971753e-07 0.011337735
-0.02367117 0.024506176 -0.022314863 0.0291342 -0.0014555684 -0.05760324 -0.011012377 -0.02555091

net.2.bias f4 [64]
00000000: 0435 a23c c2ab a63d ae4b 993d 338c 743d
00000010: 1627 463d 5558 2fbc 9da4 203e 73e2 c83d
00000020: 5288 b4bc 1faa fe3d 9e52 bdbb 5d53 cfbd
00000030: 0213 1fbd fc81 ad3b 8405 31bd 6ede 823d
00000040: 1ece a63d fcd0 61bd ee51 f3bd af65 043e
00000050: b2ec 6bbc 37aa c4ba bb5c 65bd c067 ac3d
00000060: 9aa5 2a3d a8de 023d 151c 513d 8735 0c3d
00000070: 3a2d 0c3e 5fd8 b63c cc1e 23bd 5ac4 763c
00000080: dc82 8a3b 7dc6 23bd 9a35 74bd aff3 3abd
00000090: 3162 d63c 5d0f 7a3d 7ce9 7f3c db14 35bc
000000a0: 11fc fb3d 568e c7bd b3df e5bc 4cbf b7bd
000000b0: 5115 84bd 144f 223e 7153 0f3e c816 aebd
000000c0: 1f75 583d 4dce 3f3d 8af1 60bd c24e a8bd
000000d0: 7312 413d 1d12 cb3d f827 153e a526 fa3d
000000e0: f49b 7c3d e020 32bc fdfa c13d 012a afbd
000000f0: 6a74 8ebc 0694 d1bd c02d c5bd 9d9d 863d
0.01980067 0.08138229 0.07485138 0.059704017 0.04837712 -0.010702212 0.15687795 0.09808817
-0.022037659 0.12434792 -0.005777671 -0.10123322 -0.038836487 0.0052950364 -0.04321815 0.06390081
0.081447825 -0.055130944 -0.11880861 0.12929414 -0.014399694 -0.0015004341 -0.055996638 0.08418226
0.041661836 0.031950623 0.05105217 0.034230735 0.13689128 0.02231997 -0.039824292 0.015061462
0.0042270254 -0.039984215 -0.05962143 -0.04564255 0.026169868 0.061049808 0.015619632 -0.011052336
0.12303937 -0.09743945 -0.02806077 -0.08972034 -0.06449378 0.15850478 0.13996674 -0.08500439
0.05284607 0.046827603 -0.05491785 -0.08218147 0.047136735 0.09915564 0.14566028 0.12214402
0.061672166 -0.010872096 0.094717 -0.085529335 -0.017389495 -0.10233311 -0.09627867 0.06573031

coord_head.weight f4 [2, 64]
00000000: 5ef4 713e d837 f83c 651e d73d 1a5a 09be
00000010: 1a6b c63c 409d 40bd ff6c 31bd f801 bb3c
00000020: 5f8f cb3c 10d4 5d3d 4302 b8bd 99dc 02be
00000030: fb65 943d abb1 583d 7c38 a9bd dd5b 9d3c
00000040: 7694 263e 0796 dfbc c38a 53bd 1dcc 8abd
00000050: d1fb b2bd 5959 d23c 5d51 15bd d3f0 62bc
00000060: f21e 4d3b 9544 bd3c 4200 36bc c9bb d23d
00000070: 514b 9b3c c987 d1bd b9e7 65bd 40b7 b63d
00000080: 674c 55ba c8ab 4bbe 69de 39bd c7f2 8ebd
00000090: 6499 843d 04ff 613d cc7c a2ba 56fa 433d
000000a0: 9e68 dcbc b18e 9e3e 3a68 843d a66f 0ebd
000000b0: d0f8 273c fe89 d43d 940c ba3d d298 0b3c
000000c0: f829 fe3d 7733 c03d d2fc fd3c a2e1 1a3c
000000d0: 4995 60bd 7afb fa3b 24ad 013e 8f19 aa3b
000000e0: 7a07 003d 7ed4 fabd 53af 8dbd 2435 aabc
000000f0: 47d4 fb3c 5410 e6bd 0213 ffbd 36f4 a43c
00000100: 7f9a 973d 38e1 e9bc 517e 633d f4b8 083e
00000110: 5b3e e43c 72ee b93b c840 253e 35e3 3c3d
00000120: ee62 7cbc 1bd7 8e3d 2ee4 873a 842e 4e3d
00000130: e491 4cbe 4c3b 64bc 96af ddbb e75c 183d
00000140: 90a6 5d3d c9d7 5a3e 7504 23be ad6b 063e
00000150: bd11 13bd 23dd 09be d777 26bd bcf9 863d
00000160: 29ce 583d 285a ac3a 0f98 6f3d 28f3 8ebc
00000170: 3f30 913d a4ec b53d 772a 643e d6cb 9ebc
00000180: fa94 e4bd 184f ec3d 62b2 84bd 7c8f b8bc
00000190: e4b8 ed3c f403 c4bb 185f a43d afe5 d93c
000001a0: 6d68 aa3d 54ae c7be 6bb7 90bc a08f ff3c
000001b0: e013 afbb 18f3 5b3d 38c7 de3d 2651 5abc
000001c0: 4ba6 17be d17d 0b3e b085 83bd cd59 0a3c
000001d0: 4276 22bc 450e fc3b 6542 893c c68d 2a3c
000001e0: bba4 c9bd 2208 53be c704 1f3e 6374 30bc
000001f0: d4f6 f13c 8e2f 7e3c 216a 5dbe 68f9 663c
0.23628375 0.030300066 0.10503844 -0.13413277 0.024220992 -0.047024965 -0.043316837 0.022828087
0.024848638 0.054157317 -0.089848064 -0.12779464 0.07246014 0.052903812 -0.08262727 0.019208843
0.16267571 -0.027293218 -0.051646005 -0.06777213 -0.087394364 0.02567737 -0.036454547 -0.013851362
0.0031298962 0.023103992 -0.01110846 0.102897234 0.018956812 -0.10230977 -0.05612919 0.08921671
-0.000813669 -0.19889748 -0.045378122 -0.069799 0.064745694 0.055174842 -0.0012396812 0.04784616
-0.026905354 0.3096824 0.06465192 -0.034774445 0.010252193 0.103778824 0.0908443 0.008520322
0.12410349 0.09384816 0.031004343 0.009453209 -0.05482987 0.007659373 0.12663704 0.005191035
0.03125713 -0.12247561 -0.06918206 -0.020777293 0.03074087 -0.11233583 -0.12454797 0.02013598
0.07402515 -0.028549775 0.055540387 0.13351804 0.027861765 0.005674177 0.16137993 0.04611512
-0.015404446 0.06974622 0.0010367685 0.05033733 -0.19977528 -0.013930153 -0.0067653162 0.037197974
0.054113925 0.21371378 -0.15919669 0.13127013 -0.03590559 -0.13463263 -0.040641632 0.06590602
0.052930985 0.0013149427 0.058494624 -0.01744993 0.0708928 0.08883026 0.22281824 -0.019384306
-0.111612275 0.115385234 -0.06479336 -0.022529356 0.029018827 -0.0059819166 0.0802595 0.02659878
0.08320699 -0.3900019 -0.017665586 0.031196415 -0.0053429455 0.05369863 0.10877842 -0.013325011
-0.1480953 0.13622214 -0.06421983 0.008444262 -0.00991589 0.0076921307 0.016755292 0.010409778
-0.09845873 -0.20608571 0.15529166 -0.010769936 0.029536642 0.015514268 -0.21622516 0.014097549

coord_head.bias f4 [2]
00000000: 6de7 50bd 7b57 1a3e
-0.051001955 0.15072434
